Neural Network Tools for STM32AI v1.6.0 (STM.ai v7.1.0-RC3)
Created date          : 2022-08-01 22:36:40
Parameters            : generate --name network -m /Users/edoardo/STM32CubeIDE/workspace_1.10.1/stm32f429-ai-teachablemachine/Model/model_aew.tflite --type tflite --compression 1 --verbosity 1 --workspace /var/folders/48/l0spqxpd4fb53zl2tk8w7hq00000gn/T/mxAI_workspace4579410140640110940249756628481669 --output /Users/edoardo/.stm32cubemx/network_output

Exec/report summary (generate)
------------------------------------------------------------------------------------------------------------------------
model file            : /Users/edoardo/STM32CubeIDE/workspace_1.10.1/stm32f429-ai-teachablemachine/Model/model_aew.tflite
type                  : tflite
c_name                : network
compression           : None
allocator strategy    : ['multi-heaps']
target info           : /private/var/folders/48/l0spqxpd4fb53zl2tk8w7hq00000gn/T/mxAI_workspace4579410140640110940249756628481669/mempools.json
workspace dir         : /private/var/folders/48/l0spqxpd4fb53zl2tk8w7hq00000gn/T/mxAI_workspace4579410140640110940249756628481669
output dir            : /Users/edoardo/.stm32cubemx/network_output
model_name            : model_aew
model_hash            : 9be4ecad21c4d202e6f0c3510d82bdb2
input 1/1             : 'serving_default_sequential_1_input0'
                        150528 items, 147.00 KiB, ai_u8, scale=0.00784314, zero_point=127, (1,224,224,3), domain:user/
output 1/1            : 'nl_71_0_conversion'
                        3 items, 3 B, ai_u8, scale=0.00390625, zero_point=0, (1,1,1,3), domain:user/
params #              : 517,488 items (526.28 KiB)
macc                  : 58,587,404
weights (ro)          : 538,920 B (526.29 KiB) / +12(+0.0%) vs original model (1 segment)
activations (rw)      : 610,784 B (596.47 KiB) (1 segment)
ram (total)           : 761,315 B (743.47 KiB) = 610,784 + 150,528 + 3

Memory-pools summary (activations/ domain)
------------------------------------------------------
name   id   usable size   used                buffer#
------------------------------------------------------
pool   0    8.00 MiB      596.47 KiB (7.3%)   155    
------------------------------------------------------

Model name - model_aew ['serving_default_sequential_1_input0'] ['conversion_72']
-----------------------------------------------------------------------------------------------------------------------------------------------------------------------------------------------------
id   layer (type)                                  oshape           param/size        macc        connected to                          |   c_size       c_macc              c_type                 
-----------------------------------------------------------------------------------------------------------------------------------------------------------------------------------------------------
0    serving_default_sequential_1_input0 (Input)   (1,224,224,3)                                                                        |                                   
     conversion_0 (Conversion)                     (1,224,224,3)                      301,056     serving_default_sequential_1_input0   |                                    conv(i)[0]             
-----------------------------------------------------------------------------------------------------------------------------------------------------------------------------------------------------
1    pad_1 (Pad)                                   (1,225,225,3)                                  conversion_0                          |                                   
-----------------------------------------------------------------------------------------------------------------------------------------------------------------------------------------------------
2    conv2d_2 (Conv2D)                             (1,112,112,16)   448/496           5,419,024   pad_1                                 |                                    conv2d(i)[1]           
     nl_2_nl (Nonlinearity)                        (1,112,112,16)                     200,704     conv2d_2                              |                -200,704(-100.0%)  
-----------------------------------------------------------------------------------------------------------------------------------------------------------------------------------------------------
3    conv2d_3 (Conv2D)                             (1,112,112,16)   160/208           1,806,352   nl_2_nl                               |                                    conv2d(i)[2]           
     nl_3_nl (Nonlinearity)                        (1,112,112,16)                     200,704     conv2d_3                              |                -200,704(-100.0%)  
-----------------------------------------------------------------------------------------------------------------------------------------------------------------------------------------------------
4    conv2d_4 (Conv2D)                             (1,112,112,8)    136/160           1,605,640   nl_3_nl                               |                                    conv2d(i)[3]           
-----------------------------------------------------------------------------------------------------------------------------------------------------------------------------------------------------
5    conv2d_5 (Conv2D)                             (1,112,112,48)   432/576           4,816,944   conv2d_4                              |                                    conv2d(i)[4]           
     nl_5_nl (Nonlinearity)                        (1,112,112,48)                     602,112     conv2d_5                              |                -602,112(-100.0%)  
-----------------------------------------------------------------------------------------------------------------------------------------------------------------------------------------------------
6    pad_6 (Pad)                                   (1,113,113,48)                                 nl_5_nl                               |                                   
-----------------------------------------------------------------------------------------------------------------------------------------------------------------------------------------------------
7    conv2d_7 (Conv2D)                             (1,56,56,48)     480/624           1,354,800   pad_6                                 |                                    conv2d(i)[5]           
     nl_7_nl (Nonlinearity)                        (1,56,56,48)                       150,528     conv2d_7                              |                -150,528(-100.0%)  
-----------------------------------------------------------------------------------------------------------------------------------------------------------------------------------------------------
8    conv2d_8 (Conv2D)                             (1,56,56,8)      392/416           1,204,232   nl_7_nl                               |                                    conv2d(i)[6]           
-----------------------------------------------------------------------------------------------------------------------------------------------------------------------------------------------------
9    conv2d_9 (Conv2D)                             (1,56,56,48)     432/576           1,204,272   conv2d_8                              |                                    conv2d(i)[7]           
     nl_9_nl (Nonlinearity)                        (1,56,56,48)                       150,528     conv2d_9                              |                -150,528(-100.0%)  
-----------------------------------------------------------------------------------------------------------------------------------------------------------------------------------------------------
10   conv2d_10 (Conv2D)                            (1,56,56,48)     480/624           1,354,800   nl_9_nl                               |                                    conv2d(i)[8]           
     nl_10_nl (Nonlinearity)                       (1,56,56,48)                       150,528     conv2d_10                             |                -150,528(-100.0%)  
-----------------------------------------------------------------------------------------------------------------------------------------------------------------------------------------------------
11   conv2d_11 (Conv2D)                            (1,56,56,8)      392/416           1,204,232   nl_10_nl                              |                                    conv2d(i)[9]           
-----------------------------------------------------------------------------------------------------------------------------------------------------------------------------------------------------
12   eltwise_12 (Eltwise)                          (1,56,56,8)                        25,088      conv2d_8                              |                                    eltwise_integer(i)[10] 
                                                                                                  conv2d_11                             |  
-----------------------------------------------------------------------------------------------------------------------------------------------------------------------------------------------------
13   conv2d_13 (Conv2D)                            (1,56,56,48)     432/576           1,204,272   eltwise_12                            |                                    conv2d(i)[11]          
     nl_13_nl (Nonlinearity)                       (1,56,56,48)                       150,528     conv2d_13                             |                -150,528(-100.0%)  
-----------------------------------------------------------------------------------------------------------------------------------------------------------------------------------------------------
14   pad_14 (Pad)                                  (1,57,57,48)                                   nl_13_nl                              |                                   
-----------------------------------------------------------------------------------------------------------------------------------------------------------------------------------------------------
15   conv2d_15 (Conv2D)                            (1,28,28,48)     480/624           338,736     pad_14                                |                                    conv2d(i)[12]          
     nl_15_nl (Nonlinearity)                       (1,28,28,48)                       37,632      conv2d_15                             |                -37,632(-100.0%)   
-----------------------------------------------------------------------------------------------------------------------------------------------------------------------------------------------------
16   conv2d_16 (Conv2D)                            (1,28,28,16)     784/832           602,128     nl_15_nl                              |                                    conv2d(i)[13]          
-----------------------------------------------------------------------------------------------------------------------------------------------------------------------------------------------------
17   conv2d_17 (Conv2D)                            (1,28,28,96)     1,632/1,920       1,204,320   conv2d_16                             |                                    conv2d(i)[14]          
     nl_17_nl (Nonlinearity)                       (1,28,28,96)                       75,264      conv2d_17                             |                -75,264(-100.0%)   
-----------------------------------------------------------------------------------------------------------------------------------------------------------------------------------------------------
18   conv2d_18 (Conv2D)                            (1,28,28,96)     960/1,248         677,472     nl_17_nl                              |                                    conv2d(i)[15]          
     nl_18_nl (Nonlinearity)                       (1,28,28,96)                       75,264      conv2d_18                             |                -75,264(-100.0%)   
-----------------------------------------------------------------------------------------------------------------------------------------------------------------------------------------------------
19   conv2d_19 (Conv2D)                            (1,28,28,16)     1,552/1,600       1,204,240   nl_18_nl                              |                                    conv2d(i)[16]          
-----------------------------------------------------------------------------------------------------------------------------------------------------------------------------------------------------
20   eltwise_20 (Eltwise)                          (1,28,28,16)                       12,544      conv2d_16                             |                                    eltwise_integer(i)[17] 
                                                                                                  conv2d_19                             |  
-----------------------------------------------------------------------------------------------------------------------------------------------------------------------------------------------------
21   conv2d_21 (Conv2D)                            (1,28,28,96)     1,632/1,920       1,204,320   eltwise_20                            |                                    conv2d(i)[18]          
     nl_21_nl (Nonlinearity)                       (1,28,28,96)                       75,264      conv2d_21                             |                -75,264(-100.0%)   
-----------------------------------------------------------------------------------------------------------------------------------------------------------------------------------------------------
22   conv2d_22 (Conv2D)                            (1,28,28,96)     960/1,248         677,472     nl_21_nl                              |                                    conv2d(i)[19]          
     nl_22_nl (Nonlinearity)                       (1,28,28,96)                       75,264      conv2d_22                             |                -75,264(-100.0%)   
-----------------------------------------------------------------------------------------------------------------------------------------------------------------------------------------------------
23   conv2d_23 (Conv2D)                            (1,28,28,16)     1,552/1,600       1,204,240   nl_22_nl                              |                                    conv2d(i)[20]          
-----------------------------------------------------------------------------------------------------------------------------------------------------------------------------------------------------
24   eltwise_24 (Eltwise)                          (1,28,28,16)                       12,544      eltwise_20                            |                                    eltwise_integer(i)[21] 
                                                                                                  conv2d_23                             |  
-----------------------------------------------------------------------------------------------------------------------------------------------------------------------------------------------------
25   conv2d_25 (Conv2D)                            (1,28,28,96)     1,632/1,920       1,204,320   eltwise_24                            |                                    conv2d(i)[22]          
     nl_25_nl (Nonlinearity)                       (1,28,28,96)                       75,264      conv2d_25                             |                -75,264(-100.0%)   
-----------------------------------------------------------------------------------------------------------------------------------------------------------------------------------------------------
26   pad_26 (Pad)                                  (1,29,29,96)                                   nl_25_nl                              |                                   
-----------------------------------------------------------------------------------------------------------------------------------------------------------------------------------------------------
27   conv2d_27 (Conv2D)                            (1,14,14,96)     960/1,248         169,440     pad_26                                |                                    conv2d(i)[23]          
     nl_27_nl (Nonlinearity)                       (1,14,14,96)                       18,816      conv2d_27                             |                -18,816(-100.0%)   
-----------------------------------------------------------------------------------------------------------------------------------------------------------------------------------------------------
28   conv2d_28 (Conv2D)                            (1,14,14,24)     2,328/2,400       451,608     nl_27_nl                              |                                    conv2d(i)[24]          
-----------------------------------------------------------------------------------------------------------------------------------------------------------------------------------------------------
29   conv2d_29 (Conv2D)                            (1,14,14,144)    3,600/4,032       677,520     conv2d_28                             |                                    conv2d(i)[25]          
     nl_29_nl (Nonlinearity)                       (1,14,14,144)                      28,224      conv2d_29                             |                -28,224(-100.0%)   
-----------------------------------------------------------------------------------------------------------------------------------------------------------------------------------------------------
30   conv2d_30 (Conv2D)                            (1,14,14,144)    1,440/1,872       254,160     nl_29_nl                              |                                    conv2d(i)[26]          
     nl_30_nl (Nonlinearity)                       (1,14,14,144)                      28,224      conv2d_30                             |                -28,224(-100.0%)   
-----------------------------------------------------------------------------------------------------------------------------------------------------------------------------------------------------
31   conv2d_31 (Conv2D)                            (1,14,14,24)     3,480/3,552       677,400     nl_30_nl                              |                                    conv2d(i)[27]          
-----------------------------------------------------------------------------------------------------------------------------------------------------------------------------------------------------
32   eltwise_32 (Eltwise)                          (1,14,14,24)                       4,704       conv2d_28                             |                                    eltwise_integer(i)[28] 
                                                                                                  conv2d_31                             |  
-----------------------------------------------------------------------------------------------------------------------------------------------------------------------------------------------------
33   conv2d_33 (Conv2D)                            (1,14,14,144)    3,600/4,032       677,520     eltwise_32                            |                                    conv2d(i)[29]          
     nl_33_nl (Nonlinearity)                       (1,14,14,144)                      28,224      conv2d_33                             |                -28,224(-100.0%)   
-----------------------------------------------------------------------------------------------------------------------------------------------------------------------------------------------------
34   conv2d_34 (Conv2D)                            (1,14,14,144)    1,440/1,872       254,160     nl_33_nl                              |                                    conv2d(i)[30]          
     nl_34_nl (Nonlinearity)                       (1,14,14,144)                      28,224      conv2d_34                             |                -28,224(-100.0%)   
-----------------------------------------------------------------------------------------------------------------------------------------------------------------------------------------------------
35   conv2d_35 (Conv2D)                            (1,14,14,24)     3,480/3,552       677,400     nl_34_nl                              |                                    conv2d(i)[31]          
-----------------------------------------------------------------------------------------------------------------------------------------------------------------------------------------------------
36   eltwise_36 (Eltwise)                          (1,14,14,24)                       4,704       eltwise_32                            |                                    eltwise_integer(i)[32] 
                                                                                                  conv2d_35                             |  
-----------------------------------------------------------------------------------------------------------------------------------------------------------------------------------------------------
37   conv2d_37 (Conv2D)                            (1,14,14,144)    3,600/4,032       677,520     eltwise_36                            |                                    conv2d(i)[33]          
     nl_37_nl (Nonlinearity)                       (1,14,14,144)                      28,224      conv2d_37                             |                -28,224(-100.0%)   
-----------------------------------------------------------------------------------------------------------------------------------------------------------------------------------------------------
38   conv2d_38 (Conv2D)                            (1,14,14,144)    1,440/1,872       254,160     nl_37_nl                              |                                    conv2d(i)[34]          
     nl_38_nl (Nonlinearity)                       (1,14,14,144)                      28,224      conv2d_38                             |                -28,224(-100.0%)   
-----------------------------------------------------------------------------------------------------------------------------------------------------------------------------------------------------
39   conv2d_39 (Conv2D)                            (1,14,14,24)     3,480/3,552       677,400     nl_38_nl                              |                                    conv2d(i)[35]          
-----------------------------------------------------------------------------------------------------------------------------------------------------------------------------------------------------
40   eltwise_40 (Eltwise)                          (1,14,14,24)                       4,704       eltwise_36                            |                                    eltwise_integer(i)[36] 
                                                                                                  conv2d_39                             |  
-----------------------------------------------------------------------------------------------------------------------------------------------------------------------------------------------------
41   conv2d_41 (Conv2D)                            (1,14,14,144)    3,600/4,032       677,520     eltwise_40                            |                                    conv2d(i)[37]          
     nl_41_nl (Nonlinearity)                       (1,14,14,144)                      28,224      conv2d_41                             |                -28,224(-100.0%)   
-----------------------------------------------------------------------------------------------------------------------------------------------------------------------------------------------------
42   conv2d_42 (Conv2D)                            (1,14,14,144)    1,440/1,872       254,160     nl_41_nl                              |                                    conv2d(i)[38]          
     nl_42_nl (Nonlinearity)                       (1,14,14,144)                      28,224      conv2d_42                             |                -28,224(-100.0%)   
-----------------------------------------------------------------------------------------------------------------------------------------------------------------------------------------------------
43   conv2d_43 (Conv2D)                            (1,14,14,32)     4,640/4,736       903,200     nl_42_nl                              |                                    conv2d(i)[39]          
-----------------------------------------------------------------------------------------------------------------------------------------------------------------------------------------------------
44   conv2d_44 (Conv2D)                            (1,14,14,192)    6,336/6,912       1,204,416   conv2d_43                             |                                    conv2d(i)[40]          
     nl_44_nl (Nonlinearity)                       (1,14,14,192)                      37,632      conv2d_44                             |                -37,632(-100.0%)   
-----------------------------------------------------------------------------------------------------------------------------------------------------------------------------------------------------
45   conv2d_45 (Conv2D)                            (1,14,14,192)    1,920/2,496       338,880     nl_44_nl                              |                                    conv2d(i)[41]          
     nl_45_nl (Nonlinearity)                       (1,14,14,192)                      37,632      conv2d_45                             |                -37,632(-100.0%)   
-----------------------------------------------------------------------------------------------------------------------------------------------------------------------------------------------------
46   conv2d_46 (Conv2D)                            (1,14,14,32)     6,176/6,272       1,204,256   nl_45_nl                              |                                    conv2d(i)[42]          
-----------------------------------------------------------------------------------------------------------------------------------------------------------------------------------------------------
47   eltwise_47 (Eltwise)                          (1,14,14,32)                       6,272       conv2d_43                             |                                    eltwise_integer(i)[43] 
                                                                                                  conv2d_46                             |  
-----------------------------------------------------------------------------------------------------------------------------------------------------------------------------------------------------
48   conv2d_48 (Conv2D)                            (1,14,14,192)    6,336/6,912       1,204,416   eltwise_47                            |                                    conv2d(i)[44]          
     nl_48_nl (Nonlinearity)                       (1,14,14,192)                      37,632      conv2d_48                             |                -37,632(-100.0%)   
-----------------------------------------------------------------------------------------------------------------------------------------------------------------------------------------------------
49   conv2d_49 (Conv2D)                            (1,14,14,192)    1,920/2,496       338,880     nl_48_nl                              |                                    conv2d(i)[45]          
     nl_49_nl (Nonlinearity)                       (1,14,14,192)                      37,632      conv2d_49                             |                -37,632(-100.0%)   
-----------------------------------------------------------------------------------------------------------------------------------------------------------------------------------------------------
50   conv2d_50 (Conv2D)                            (1,14,14,32)     6,176/6,272       1,204,256   nl_49_nl                              |                                    conv2d(i)[46]          
-----------------------------------------------------------------------------------------------------------------------------------------------------------------------------------------------------
51   eltwise_51 (Eltwise)                          (1,14,14,32)                       6,272       eltwise_47                            |                                    eltwise_integer(i)[47] 
                                                                                                  conv2d_50                             |  
-----------------------------------------------------------------------------------------------------------------------------------------------------------------------------------------------------
52   conv2d_52 (Conv2D)                            (1,14,14,192)    6,336/6,912       1,204,416   eltwise_51                            |                                    conv2d(i)[48]          
     nl_52_nl (Nonlinearity)                       (1,14,14,192)                      37,632      conv2d_52                             |                -37,632(-100.0%)   
-----------------------------------------------------------------------------------------------------------------------------------------------------------------------------------------------------
53   pad_53 (Pad)                                  (1,15,15,192)                                  nl_52_nl                              |                                   
-----------------------------------------------------------------------------------------------------------------------------------------------------------------------------------------------------
54   conv2d_54 (Conv2D)                            (1,7,7,192)      1,920/2,496       84,864      pad_53                                |                                    conv2d(i)[49]          
     nl_54_nl (Nonlinearity)                       (1,7,7,192)                        9,408       conv2d_54                             |                -9,408(-100.0%)    
-----------------------------------------------------------------------------------------------------------------------------------------------------------------------------------------------------
55   conv2d_55 (Conv2D)                            (1,7,7,56)       10,808/10,976     526,904     nl_54_nl                              |                                    conv2d(i)[50]          
-----------------------------------------------------------------------------------------------------------------------------------------------------------------------------------------------------
56   conv2d_56 (Conv2D)                            (1,7,7,336)      19,152/20,160     922,320     conv2d_55                             |                                    conv2d(i)[51]          
     nl_56_nl (Nonlinearity)                       (1,7,7,336)                        16,464      conv2d_56                             |                -16,464(-100.0%)   
-----------------------------------------------------------------------------------------------------------------------------------------------------------------------------------------------------
57   conv2d_57 (Conv2D)                            (1,7,7,336)      3,360/4,368       148,512     nl_56_nl                              |                                    conv2d(i)[52]          
     nl_57_nl (Nonlinearity)                       (1,7,7,336)                        16,464      conv2d_57                             |                -16,464(-100.0%)   
-----------------------------------------------------------------------------------------------------------------------------------------------------------------------------------------------------
58   conv2d_58 (Conv2D)                            (1,7,7,56)       18,872/19,040     922,040     nl_57_nl                              |                                    conv2d(i)[53]          
-----------------------------------------------------------------------------------------------------------------------------------------------------------------------------------------------------
59   eltwise_59 (Eltwise)                          (1,7,7,56)                         2,744       conv2d_55                             |                                    eltwise_integer(i)[54] 
                                                                                                  conv2d_58                             |  
-----------------------------------------------------------------------------------------------------------------------------------------------------------------------------------------------------
60   conv2d_60 (Conv2D)                            (1,7,7,336)      19,152/20,160     922,320     eltwise_59                            |                                    conv2d(i)[55]          
     nl_60_nl (Nonlinearity)                       (1,7,7,336)                        16,464      conv2d_60                             |                -16,464(-100.0%)   
-----------------------------------------------------------------------------------------------------------------------------------------------------------------------------------------------------
61   conv2d_61 (Conv2D)                            (1,7,7,336)      3,360/4,368       148,512     nl_60_nl                              |                                    conv2d(i)[56]          
     nl_61_nl (Nonlinearity)                       (1,7,7,336)                        16,464      conv2d_61                             |                -16,464(-100.0%)   
-----------------------------------------------------------------------------------------------------------------------------------------------------------------------------------------------------
62   conv2d_62 (Conv2D)                            (1,7,7,56)       18,872/19,040     922,040     nl_61_nl                              |                                    conv2d(i)[57]          
-----------------------------------------------------------------------------------------------------------------------------------------------------------------------------------------------------
63   eltwise_63 (Eltwise)                          (1,7,7,56)                         2,744       eltwise_59                            |                                    eltwise_integer(i)[58] 
                                                                                                  conv2d_62                             |  
-----------------------------------------------------------------------------------------------------------------------------------------------------------------------------------------------------
64   conv2d_64 (Conv2D)                            (1,7,7,336)      19,152/20,160     922,320     eltwise_63                            |                                    conv2d(i)[59]          
     nl_64_nl (Nonlinearity)                       (1,7,7,336)                        16,464      conv2d_64                             |                -16,464(-100.0%)   
-----------------------------------------------------------------------------------------------------------------------------------------------------------------------------------------------------
65   conv2d_65 (Conv2D)                            (1,7,7,336)      3,360/4,368       148,512     nl_64_nl                              |                                    conv2d(i)[60]          
     nl_65_nl (Nonlinearity)                       (1,7,7,336)                        16,464      conv2d_65                             |                -16,464(-100.0%)   
-----------------------------------------------------------------------------------------------------------------------------------------------------------------------------------------------------
66   conv2d_66 (Conv2D)                            (1,7,7,112)      37,744/38,080     1,844,080   nl_65_nl                              |                                    conv2d(i)[61]          
-----------------------------------------------------------------------------------------------------------------------------------------------------------------------------------------------------
67   conv2d_67 (Conv2D)                            (1,7,7,1280)     144,640/148,480   7,025,920   conv2d_66                             |                +62,720(+0.9%)      optimized_conv2d(i)[62]
     nl_67_nl (Nonlinearity)                       (1,7,7,1280)                       62,720      conv2d_67                             |                -62,720(-100.0%)   
-----------------------------------------------------------------------------------------------------------------------------------------------------------------------------------------------------
68   pool_68 (Pool)                                (1,1,1,1280)                       62,720      nl_67_nl                              |                -62,720(-100.0%)   
     reshape_68_reshape (Reshape)                  (1,1,1,1280)                                   pool_68                               |                                   
-----------------------------------------------------------------------------------------------------------------------------------------------------------------------------------------------------
69   dense_69 (Dense)                              (1,1,1,100)      128,100/128,400   128,100     reshape_68_reshape                    |                                    dense(i)[63]           
     nl_69_nl (Nonlinearity)                       (1,1,1,100)                        100         dense_69                              |                -100(-100.0%)      
-----------------------------------------------------------------------------------------------------------------------------------------------------------------------------------------------------
70   dense_70 (Dense)                              (1,1,1,3)        300/300           300         nl_69_nl                              |   +12(+4.0%)   +9(+3.0%)           dense(i)/conv()[64, 65]
-----------------------------------------------------------------------------------------------------------------------------------------------------------------------------------------------------
71   nl_71 (Nonlinearity)                          (1,1,1,3)                          45          dense_70                              |                +6(+13.3%)          nl()/conv(i)/o[66, 67] 
-----------------------------------------------------------------------------------------------------------------------------------------------------------------------------------------------------
72   conversion_72 (Conversion)                    (1,1,1,3)                          6           nl_71                                 |                -6(-100.0%)        
-----------------------------------------------------------------------------------------------------------------------------------------------------------------------------------------------------
model/c-model: macc=61,210,759/58,587,404 -2,623,355(-4.3%) weights=538,908/538,920 +12(+0.0%) activations=--/610,784 io=--/150,531



Generated C-graph summary
------------------------------------------------------------------------------------------------------------------------
model name            : model_aew
c-name                : network
c-node #              : 68
c-array #             : 265
activations size      : 610784 (1 segments)
weights size          : 538920 (1 segments)
macc                  : 58587404
inputs                : ['serving_default_sequential_1_input0_output']
outputs               : ['nl_71_0_conversion_output']

C-Arrays (265)
-----------------------------------------------------------------------------------------------------------------------------------------
c_id   name (*_array)                               item/size       domain/mem-pool    c-type          fmt                       comment
-----------------------------------------------------------------------------------------------------------------------------------------
0      serving_default_sequential_1_input0_output   150528/150528   user/              uint8_t         int8/ua                   /input 
1      conversion_0_output                          150529/150529   activations/pool   int8_t          int8/sa                          
2      conv2d_2_output                              200704/200704   activations/pool   int8_t          int8/sa                          
3      conv2d_3_output                              200704/200704   activations/pool   int8_t          int8/sa                          
4      conv2d_4_output                              100352/100352   activations/pool   int8_t          int8/sa                          
5      conv2d_5_output                              602112/602112   activations/pool   int8_t          int8/sa                          
6      conv2d_7_output                              150528/150528   activations/pool   int8_t          int8/sa                          
7      conv2d_8_output                              25088/25088     activations/pool   int8_t          int8/sa                          
8      conv2d_9_output                              150528/150528   activations/pool   int8_t          int8/sa                          
9      conv2d_10_output                             150528/150528   activations/pool   int8_t          int8/sa                          
10     conv2d_11_output                             25088/25088     activations/pool   int8_t          int8/sa                          
11     eltwise_12_output                            25088/25088     activations/pool   int8_t          int8/sa                          
12     conv2d_13_output                             150528/150528   activations/pool   int8_t          int8/sa                          
13     conv2d_15_output                             37632/37632     activations/pool   int8_t          int8/sa                          
14     conv2d_16_output                             12544/12544     activations/pool   int8_t          int8/sa                          
15     conv2d_17_output                             75264/75264     activations/pool   int8_t          int8/sa                          
16     conv2d_18_output                             75264/75264     activations/pool   int8_t          int8/sa                          
17     conv2d_19_output                             12544/12544     activations/pool   int8_t          int8/sa                          
18     eltwise_20_output                            12544/12544     activations/pool   int8_t          int8/sa                          
19     conv2d_21_output                             75264/75264     activations/pool   int8_t          int8/sa                          
20     conv2d_22_output                             75264/75264     activations/pool   int8_t          int8/sa                          
21     conv2d_23_output                             12544/12544     activations/pool   int8_t          int8/sa                          
22     eltwise_24_output                            12544/12544     activations/pool   int8_t          int8/sa                          
23     conv2d_25_output                             75264/75264     activations/pool   int8_t          int8/sa                          
24     conv2d_27_output                             18816/18816     activations/pool   int8_t          int8/sa                          
25     conv2d_28_output                             4704/4704       activations/pool   int8_t          int8/sa                          
26     conv2d_29_output                             28224/28224     activations/pool   int8_t          int8/sa                          
27     conv2d_30_output                             28224/28224     activations/pool   int8_t          int8/sa                          
28     conv2d_31_output                             4704/4704       activations/pool   int8_t          int8/sa                          
29     eltwise_32_output                            4704/4704       activations/pool   int8_t          int8/sa                          
30     conv2d_33_output                             28224/28224     activations/pool   int8_t          int8/sa                          
31     conv2d_34_output                             28224/28224     activations/pool   int8_t          int8/sa                          
32     conv2d_35_output                             4704/4704       activations/pool   int8_t          int8/sa                          
33     eltwise_36_output                            4704/4704       activations/pool   int8_t          int8/sa                          
34     conv2d_37_output                             28224/28224     activations/pool   int8_t          int8/sa                          
35     conv2d_38_output                             28224/28224     activations/pool   int8_t          int8/sa                          
36     conv2d_39_output                             4704/4704       activations/pool   int8_t          int8/sa                          
37     eltwise_40_output                            4704/4704       activations/pool   int8_t          int8/sa                          
38     conv2d_41_output                             28224/28224     activations/pool   int8_t          int8/sa                          
39     conv2d_42_output                             28224/28224     activations/pool   int8_t          int8/sa                          
40     conv2d_43_output                             6272/6272       activations/pool   int8_t          int8/sa                          
41     conv2d_44_output                             37632/37632     activations/pool   int8_t          int8/sa                          
42     conv2d_45_output                             37632/37632     activations/pool   int8_t          int8/sa                          
43     conv2d_46_output                             6272/6272       activations/pool   int8_t          int8/sa                          
44     eltwise_47_output                            6272/6272       activations/pool   int8_t          int8/sa                          
45     conv2d_48_output                             37632/37632     activations/pool   int8_t          int8/sa                          
46     conv2d_49_output                             37632/37632     activations/pool   int8_t          int8/sa                          
47     conv2d_50_output                             6272/6272       activations/pool   int8_t          int8/sa                          
48     eltwise_51_output                            6272/6272       activations/pool   int8_t          int8/sa                          
49     conv2d_52_output                             37632/37632     activations/pool   int8_t          int8/sa                          
50     conv2d_54_output                             9408/9408       activations/pool   int8_t          int8/sa                          
51     conv2d_55_output                             2744/2744       activations/pool   int8_t          int8/sa                          
52     conv2d_56_output                             16464/16464     activations/pool   int8_t          int8/sa                          
53     conv2d_57_output                             16464/16464     activations/pool   int8_t          int8/sa                          
54     conv2d_58_output                             2744/2744       activations/pool   int8_t          int8/sa                          
55     eltwise_59_output                            2744/2744       activations/pool   int8_t          int8/sa                          
56     conv2d_60_output                             16464/16464     activations/pool   int8_t          int8/sa                          
57     conv2d_61_output                             16464/16464     activations/pool   int8_t          int8/sa                          
58     conv2d_62_output                             2744/2744       activations/pool   int8_t          int8/sa                          
59     eltwise_63_output                            2744/2744       activations/pool   int8_t          int8/sa                          
60     conv2d_64_output                             16464/16464     activations/pool   int8_t          int8/sa                          
61     conv2d_65_output                             16464/16464     activations/pool   int8_t          int8/sa                          
62     conv2d_66_output                             5488/5488       activations/pool   int8_t          int8/sa                          
63     conv2d_67_output                             1280/1280       activations/pool   int8_t          int8/sa                          
64     dense_69_output                              100/100         activations/pool   int8_t          int8/sa                          
65     dense_70_output                              3/3             activations/pool   int8_t          int8/sa                          
66     dense_70_0_conversion_output                 3/12            activations/pool   float           float                            
67     nl_71_output                                 3/12            activations/pool   float           float                            
68     nl_71_0_conversion_output                    3/3             user/              uint8_t         int8/ua                   /output
69     conv2d_2_weights                             432/432         weights/           const int8_t    int8/sa/channel (16)             
70     conv2d_2_bias                                16/64           weights/           const int32_t   int32/sa/channel (16)            
71     conv2d_3_weights                             144/144         weights/           const int8_t    int8/sa/channel (16)             
72     conv2d_3_bias                                16/64           weights/           const int32_t   int32/sa/channel (16)            
73     conv2d_4_weights                             128/128         weights/           const int8_t    int8/sa/channel (8)              
74     conv2d_4_bias                                8/32            weights/           const int32_t   int32/sa/channel (8)             
75     conv2d_5_weights                             384/384         weights/           const int8_t    int8/sa/channel (48)             
76     conv2d_5_bias                                48/192          weights/           const int32_t   int32/sa/channel (48)            
77     conv2d_7_weights                             432/432         weights/           const int8_t    int8/sa/channel (48)             
78     conv2d_7_bias                                48/192          weights/           const int32_t   int32/sa/channel (48)            
79     conv2d_8_weights                             384/384         weights/           const int8_t    int8/sa/channel (8)              
80     conv2d_8_bias                                8/32            weights/           const int32_t   int32/sa/channel (8)             
81     conv2d_9_weights                             384/384         weights/           const int8_t    int8/sa/channel (48)             
82     conv2d_9_bias                                48/192          weights/           const int32_t   int32/sa/channel (48)            
83     conv2d_10_weights                            432/432         weights/           const int8_t    int8/sa/channel (48)             
84     conv2d_10_bias                               48/192          weights/           const int32_t   int32/sa/channel (48)            
85     conv2d_11_weights                            384/384         weights/           const int8_t    int8/sa/channel (8)              
86     conv2d_11_bias                               8/32            weights/           const int32_t   int32/sa/channel (8)             
87     conv2d_13_weights                            384/384         weights/           const int8_t    int8/sa/channel (48)             
88     conv2d_13_bias                               48/192          weights/           const int32_t   int32/sa/channel (48)            
89     conv2d_15_weights                            432/432         weights/           const int8_t    int8/sa/channel (48)             
90     conv2d_15_bias                               48/192          weights/           const int32_t   int32/sa/channel (48)            
91     conv2d_16_weights                            768/768         weights/           const int8_t    int8/sa/channel (16)             
92     conv2d_16_bias                               16/64           weights/           const int32_t   int32/sa/channel (16)            
93     conv2d_17_weights                            1536/1536       weights/           const int8_t    int8/sa/channel (96)             
94     conv2d_17_bias                               96/384          weights/           const int32_t   int32/sa/channel (96)            
95     conv2d_18_weights                            864/864         weights/           const int8_t    int8/sa/channel (96)             
96     conv2d_18_bias                               96/384          weights/           const int32_t   int32/sa/channel (96)            
97     conv2d_19_weights                            1536/1536       weights/           const int8_t    int8/sa/channel (16)             
98     conv2d_19_bias                               16/64           weights/           const int32_t   int32/sa/channel (16)            
99     conv2d_21_weights                            1536/1536       weights/           const int8_t    int8/sa/channel (96)             
100    conv2d_21_bias                               96/384          weights/           const int32_t   int32/sa/channel (96)            
101    conv2d_22_weights                            864/864         weights/           const int8_t    int8/sa/channel (96)             
102    conv2d_22_bias                               96/384          weights/           const int32_t   int32/sa/channel (96)            
103    conv2d_23_weights                            1536/1536       weights/           const int8_t    int8/sa/channel (16)             
104    conv2d_23_bias                               16/64           weights/           const int32_t   int32/sa/channel (16)            
105    conv2d_25_weights                            1536/1536       weights/           const int8_t    int8/sa/channel (96)             
106    conv2d_25_bias                               96/384          weights/           const int32_t   int32/sa/channel (96)            
107    conv2d_27_weights                            864/864         weights/           const int8_t    int8/sa/channel (96)             
108    conv2d_27_bias                               96/384          weights/           const int32_t   int32/sa/channel (96)            
109    conv2d_28_weights                            2304/2304       weights/           const int8_t    int8/sa/channel (24)             
110    conv2d_28_bias                               24/96           weights/           const int32_t   int32/sa/channel (24)            
111    conv2d_29_weights                            3456/3456       weights/           const int8_t    int8/sa/channel (144)            
112    conv2d_29_bias                               144/576         weights/           const int32_t   int32/sa/channel (144)           
113    conv2d_30_weights                            1296/1296       weights/           const int8_t    int8/sa/channel (144)            
114    conv2d_30_bias                               144/576         weights/           const int32_t   int32/sa/channel (144)           
115    conv2d_31_weights                            3456/3456       weights/           const int8_t    int8/sa/channel (24)             
116    conv2d_31_bias                               24/96           weights/           const int32_t   int32/sa/channel (24)            
117    conv2d_33_weights                            3456/3456       weights/           const int8_t    int8/sa/channel (144)            
118    conv2d_33_bias                               144/576         weights/           const int32_t   int32/sa/channel (144)           
119    conv2d_34_weights                            1296/1296       weights/           const int8_t    int8/sa/channel (144)            
120    conv2d_34_bias                               144/576         weights/           const int32_t   int32/sa/channel (144)           
121    conv2d_35_weights                            3456/3456       weights/           const int8_t    int8/sa/channel (24)             
122    conv2d_35_bias                               24/96           weights/           const int32_t   int32/sa/channel (24)            
123    conv2d_37_weights                            3456/3456       weights/           const int8_t    int8/sa/channel (144)            
124    conv2d_37_bias                               144/576         weights/           const int32_t   int32/sa/channel (144)           
125    conv2d_38_weights                            1296/1296       weights/           const int8_t    int8/sa/channel (144)            
126    conv2d_38_bias                               144/576         weights/           const int32_t   int32/sa/channel (144)           
127    conv2d_39_weights                            3456/3456       weights/           const int8_t    int8/sa/channel (24)             
128    conv2d_39_bias                               24/96           weights/           const int32_t   int32/sa/channel (24)            
129    conv2d_41_weights                            3456/3456       weights/           const int8_t    int8/sa/channel (144)            
130    conv2d_41_bias                               144/576         weights/           const int32_t   int32/sa/channel (144)           
131    conv2d_42_weights                            1296/1296       weights/           const int8_t    int8/sa/channel (144)            
132    conv2d_42_bias                               144/576         weights/           const int32_t   int32/sa/channel (144)           
133    conv2d_43_weights                            4608/4608       weights/           const int8_t    int8/sa/channel (32)             
134    conv2d_43_bias                               32/128          weights/           const int32_t   int32/sa/channel (32)            
135    conv2d_44_weights                            6144/6144       weights/           const int8_t    int8/sa/channel (192)            
136    conv2d_44_bias                               192/768         weights/           const int32_t   int32/sa/channel (192)           
137    conv2d_45_weights                            1728/1728       weights/           const int8_t    int8/sa/channel (192)            
138    conv2d_45_bias                               192/768         weights/           const int32_t   int32/sa/channel (192)           
139    conv2d_46_weights                            6144/6144       weights/           const int8_t    int8/sa/channel (32)             
140    conv2d_46_bias                               32/128          weights/           const int32_t   int32/sa/channel (32)            
141    conv2d_48_weights                            6144/6144       weights/           const int8_t    int8/sa/channel (192)            
142    conv2d_48_bias                               192/768         weights/           const int32_t   int32/sa/channel (192)           
143    conv2d_49_weights                            1728/1728       weights/           const int8_t    int8/sa/channel (192)            
144    conv2d_49_bias                               192/768         weights/           const int32_t   int32/sa/channel (192)           
145    conv2d_50_weights                            6144/6144       weights/           const int8_t    int8/sa/channel (32)             
146    conv2d_50_bias                               32/128          weights/           const int32_t   int32/sa/channel (32)            
147    conv2d_52_weights                            6144/6144       weights/           const int8_t    int8/sa/channel (192)            
148    conv2d_52_bias                               192/768         weights/           const int32_t   int32/sa/channel (192)           
149    conv2d_54_weights                            1728/1728       weights/           const int8_t    int8/sa/channel (192)            
150    conv2d_54_bias                               192/768         weights/           const int32_t   int32/sa/channel (192)           
151    conv2d_55_weights                            10752/10752     weights/           const int8_t    int8/sa/channel (56)             
152    conv2d_55_bias                               56/224          weights/           const int32_t   int32/sa/channel (56)            
153    conv2d_56_weights                            18816/18816     weights/           const int8_t    int8/sa/channel (336)            
154    conv2d_56_bias                               336/1344        weights/           const int32_t   int32/sa/channel (336)           
155    conv2d_57_weights                            3024/3024       weights/           const int8_t    int8/sa/channel (336)            
156    conv2d_57_bias                               336/1344        weights/           const int32_t   int32/sa/channel (336)           
157    conv2d_58_weights                            18816/18816     weights/           const int8_t    int8/sa/channel (56)             
158    conv2d_58_bias                               56/224          weights/           const int32_t   int32/sa/channel (56)            
159    conv2d_60_weights                            18816/18816     weights/           const int8_t    int8/sa/channel (336)            
160    conv2d_60_bias                               336/1344        weights/           const int32_t   int32/sa/channel (336)           
161    conv2d_61_weights                            3024/3024       weights/           const int8_t    int8/sa/channel (336)            
162    conv2d_61_bias                               336/1344        weights/           const int32_t   int32/sa/channel (336)           
163    conv2d_62_weights                            18816/18816     weights/           const int8_t    int8/sa/channel (56)             
164    conv2d_62_bias                               56/224          weights/           const int32_t   int32/sa/channel (56)            
165    conv2d_64_weights                            18816/18816     weights/           const int8_t    int8/sa/channel (336)            
166    conv2d_64_bias                               336/1344        weights/           const int32_t   int32/sa/channel (336)           
167    conv2d_65_weights                            3024/3024       weights/           const int8_t    int8/sa/channel (336)            
168    conv2d_65_bias                               336/1344        weights/           const int32_t   int32/sa/channel (336)           
169    conv2d_66_weights                            37632/37632     weights/           const int8_t    int8/sa/channel (112)            
170    conv2d_66_bias                               112/448         weights/           const int32_t   int32/sa/channel (112)           
171    conv2d_67_weights                            143360/143360   weights/           const int8_t    int8/sa/channel (1280)           
172    conv2d_67_bias                               1280/5120       weights/           const int32_t   int32/sa/channel (1280)          
173    dense_69_weights                             128000/128000   weights/           const int8_t    int8/sa                          
174    dense_69_bias                                100/400         weights/           const int32_t   int32/sa                         
175    dense_70_weights                             300/300         weights/           const int8_t    int8/sa                          
176    dense_70_bias                                3/12            weights/           const int32_t   int32/sa                         
177    conv2d_2_scratch0                            1196/1196       activations/pool   int8_t          int/ss                           
178    conv2d_2_scratch1                            200704/200704   activations/pool   int8_t          int8/sa                          
179    conv2d_3_scratch0                            593/593         activations/pool   int8_t          int/ss                           
180    conv2d_3_scratch1                            200704/200704   activations/pool   int8_t          int8/sa                          
181    conv2d_4_scratch0                            144/144         activations/pool   int8_t          int/ss                           
182    conv2d_5_scratch0                            512/512         activations/pool   int8_t          int/ss                           
183    conv2d_5_scratch1                            602112/602112   activations/pool   int8_t          int8/sa                          
184    conv2d_7_scratch0                            1777/1777       activations/pool   int8_t          int/ss                           
185    conv2d_7_scratch1                            150528/150528   activations/pool   int8_t          int8/sa                          
186    conv2d_8_scratch0                            272/272         activations/pool   int8_t          int/ss                           
187    conv2d_9_scratch0                            512/512         activations/pool   int8_t          int/ss                           
188    conv2d_9_scratch1                            150528/150528   activations/pool   int8_t          int8/sa                          
189    conv2d_10_scratch0                           1777/1777       activations/pool   int8_t          int/ss                           
190    conv2d_10_scratch1                           150528/150528   activations/pool   int8_t          int8/sa                          
191    conv2d_11_scratch0                           272/272         activations/pool   int8_t          int/ss                           
192    conv2d_13_scratch0                           512/512         activations/pool   int8_t          int/ss                           
193    conv2d_13_scratch1                           150528/150528   activations/pool   int8_t          int8/sa                          
194    conv2d_15_scratch0                           1777/1777       activations/pool   int8_t          int/ss                           
195    conv2d_15_scratch1                           37632/37632     activations/pool   int8_t          int8/sa                          
196    conv2d_16_scratch0                           352/352         activations/pool   int8_t          int/ss                           
197    conv2d_17_scratch0                           1024/1024       activations/pool   int8_t          int/ss                           
198    conv2d_17_scratch1                           75264/75264     activations/pool   int8_t          int8/sa                          
199    conv2d_18_scratch0                           3553/3553       activations/pool   int8_t          int/ss                           
200    conv2d_18_scratch1                           75264/75264     activations/pool   int8_t          int8/sa                          
201    conv2d_19_scratch0                           544/544         activations/pool   int8_t          int/ss                           
202    conv2d_21_scratch0                           1024/1024       activations/pool   int8_t          int/ss                           
203    conv2d_21_scratch1                           75264/75264     activations/pool   int8_t          int8/sa                          
204    conv2d_22_scratch0                           3553/3553       activations/pool   int8_t          int/ss                           
205    conv2d_22_scratch1                           75264/75264     activations/pool   int8_t          int8/sa                          
206    conv2d_23_scratch0                           544/544         activations/pool   int8_t          int/ss                           
207    conv2d_25_scratch0                           1024/1024       activations/pool   int8_t          int/ss                           
208    conv2d_25_scratch1                           75264/75264     activations/pool   int8_t          int8/sa                          
209    conv2d_27_scratch0                           3553/3553       activations/pool   int8_t          int/ss                           
210    conv2d_27_scratch1                           18816/18816     activations/pool   int8_t          int8/sa                          
211    conv2d_28_scratch0                           624/624         activations/pool   int8_t          int/ss                           
212    conv2d_29_scratch0                           1536/1536       activations/pool   int8_t          int/ss                           
213    conv2d_29_scratch1                           28224/28224     activations/pool   int8_t          int8/sa                          
214    conv2d_30_scratch0                           5329/5329       activations/pool   int8_t          int/ss                           
215    conv2d_30_scratch1                           28224/28224     activations/pool   int8_t          int8/sa                          
216    conv2d_31_scratch0                           816/816         activations/pool   int8_t          int/ss                           
217    conv2d_33_scratch0                           1536/1536       activations/pool   int8_t          int/ss                           
218    conv2d_33_scratch1                           28224/28224     activations/pool   int8_t          int8/sa                          
219    conv2d_34_scratch0                           5329/5329       activations/pool   int8_t          int/ss                           
220    conv2d_34_scratch1                           28224/28224     activations/pool   int8_t          int8/sa                          
221    conv2d_35_scratch0                           816/816         activations/pool   int8_t          int/ss                           
222    conv2d_37_scratch0                           1536/1536       activations/pool   int8_t          int/ss                           
223    conv2d_37_scratch1                           28224/28224     activations/pool   int8_t          int8/sa                          
224    conv2d_38_scratch0                           5329/5329       activations/pool   int8_t          int/ss                           
225    conv2d_38_scratch1                           28224/28224     activations/pool   int8_t          int8/sa                          
226    conv2d_39_scratch0                           816/816         activations/pool   int8_t          int/ss                           
227    conv2d_41_scratch0                           1536/1536       activations/pool   int8_t          int/ss                           
228    conv2d_41_scratch1                           28224/28224     activations/pool   int8_t          int8/sa                          
229    conv2d_42_scratch0                           5329/5329       activations/pool   int8_t          int/ss                           
230    conv2d_42_scratch1                           28224/28224     activations/pool   int8_t          int8/sa                          
231    conv2d_43_scratch0                           896/896         activations/pool   int8_t          int/ss                           
232    conv2d_44_scratch0                           2048/2048       activations/pool   int8_t          int/ss                           
233    conv2d_44_scratch1                           37632/37632     activations/pool   int8_t          int8/sa                          
234    conv2d_45_scratch0                           7105/7105       activations/pool   int8_t          int/ss                           
235    conv2d_45_scratch1                           37632/37632     activations/pool   int8_t          int8/sa                          
236    conv2d_46_scratch0                           1088/1088       activations/pool   int8_t          int/ss                           
237    conv2d_48_scratch0                           2048/2048       activations/pool   int8_t          int/ss                           
238    conv2d_48_scratch1                           37632/37632     activations/pool   int8_t          int8/sa                          
239    conv2d_49_scratch0                           7105/7105       activations/pool   int8_t          int/ss                           
240    conv2d_49_scratch1                           37632/37632     activations/pool   int8_t          int8/sa                          
241    conv2d_50_scratch0                           1088/1088       activations/pool   int8_t          int/ss                           
242    conv2d_52_scratch0                           2048/2048       activations/pool   int8_t          int/ss                           
243    conv2d_52_scratch1                           37632/37632     activations/pool   int8_t          int8/sa                          
244    conv2d_54_scratch0                           7105/7105       activations/pool   int8_t          int/ss                           
245    conv2d_54_scratch1                           9408/9408       activations/pool   int8_t          int8/sa                          
246    conv2d_55_scratch0                           1328/1328       activations/pool   int8_t          int/ss                           
247    conv2d_56_scratch0                           3584/3584       activations/pool   int8_t          int/ss                           
248    conv2d_56_scratch1                           16464/16464     activations/pool   int8_t          int8/sa                          
249    conv2d_57_scratch0                           12433/12433     activations/pool   int8_t          int/ss                           
250    conv2d_57_scratch1                           16464/16464     activations/pool   int8_t          int8/sa                          
251    conv2d_58_scratch0                           1904/1904       activations/pool   int8_t          int/ss                           
252    conv2d_60_scratch0                           3584/3584       activations/pool   int8_t          int/ss                           
253    conv2d_60_scratch1                           16464/16464     activations/pool   int8_t          int8/sa                          
254    conv2d_61_scratch0                           12433/12433     activations/pool   int8_t          int/ss                           
255    conv2d_61_scratch1                           16464/16464     activations/pool   int8_t          int8/sa                          
256    conv2d_62_scratch0                           1904/1904       activations/pool   int8_t          int/ss                           
257    conv2d_64_scratch0                           3584/3584       activations/pool   int8_t          int/ss                           
258    conv2d_64_scratch1                           16464/16464     activations/pool   int8_t          int8/sa                          
259    conv2d_65_scratch0                           12433/12433     activations/pool   int8_t          int/ss                           
260    conv2d_65_scratch1                           16464/16464     activations/pool   int8_t          int8/sa                          
261    conv2d_66_scratch0                           2464/2464       activations/pool   int8_t          int/ss                           
262    conv2d_67_scratch0                           13248/13248     activations/pool   int8_t          int/ss                           
263    conv2d_67_scratch1                           62720/62720     activations/pool   int8_t          int8/sa                          
264    conv2d_67_scratch2                           62720/62720     activations/pool   int8_t          int8/sa                          
-----------------------------------------------------------------------------------------------------------------------------------------

C-Layers (68)
-----------------------------------------------------------------------------------------------------------------------------------------------
c_id   name (*_layer)          id   layer_type         macc      rom      tensors                                         shape (array id)    
-----------------------------------------------------------------------------------------------------------------------------------------------
0      conversion_0            0    conv               301056    0        I: serving_default_sequential_1_input0_output   (1,224,224,3) (0)   
                                                                          O: conversion_0_output                          (1,224,224,3) (1)   
-----------------------------------------------------------------------------------------------------------------------------------------------
1      conv2d_2                2    conv2d             5419024   496      I: conversion_0_output                          (1,224,224,3) (1)   
                                                                          S: conv2d_2_scratch0                                                
                                                                          S: conv2d_2_scratch1                                                
                                                                          W: conv2d_2_weights                             (3,16,3,3) (69)     
                                                                          W: conv2d_2_bias                                (1,1,1,16) (70)     
                                                                          O: conv2d_2_output                              (1,112,112,16) (2)  
-----------------------------------------------------------------------------------------------------------------------------------------------
2      conv2d_3                3    conv2d             1806352   208      I: conv2d_2_output                              (1,112,112,16) (2)  
                                                                          S: conv2d_3_scratch0                                                
                                                                          S: conv2d_3_scratch1                                                
                                                                          W: conv2d_3_weights                             (16,1,3,3) (71)     
                                                                          W: conv2d_3_bias                                (1,1,1,16) (72)     
                                                                          O: conv2d_3_output                              (1,112,112,16) (3)  
-----------------------------------------------------------------------------------------------------------------------------------------------
3      conv2d_4                4    conv2d             1605640   160      I: conv2d_3_output                              (1,112,112,16) (3)  
                                                                          S: conv2d_4_scratch0                                                
                                                                          W: conv2d_4_weights                             (16,8,1,1) (73)     
                                                                          W: conv2d_4_bias                                (1,1,1,8) (74)      
                                                                          O: conv2d_4_output                              (1,112,112,8) (4)   
-----------------------------------------------------------------------------------------------------------------------------------------------
4      conv2d_5                5    conv2d             4816944   576      I: conv2d_4_output                              (1,112,112,8) (4)   
                                                                          S: conv2d_5_scratch0                                                
                                                                          S: conv2d_5_scratch1                                                
                                                                          W: conv2d_5_weights                             (8,48,1,1) (75)     
                                                                          W: conv2d_5_bias                                (1,1,1,48) (76)     
                                                                          O: conv2d_5_output                              (1,112,112,48) (5)  
-----------------------------------------------------------------------------------------------------------------------------------------------
5      conv2d_7                7    conv2d             1354800   624      I: conv2d_5_output                              (1,112,112,48) (5)  
                                                                          S: conv2d_7_scratch0                                                
                                                                          S: conv2d_7_scratch1                                                
                                                                          W: conv2d_7_weights                             (48,1,3,3) (77)     
                                                                          W: conv2d_7_bias                                (1,1,1,48) (78)     
                                                                          O: conv2d_7_output                              (1,56,56,48) (6)    
-----------------------------------------------------------------------------------------------------------------------------------------------
6      conv2d_8                8    conv2d             1204232   416      I: conv2d_7_output                              (1,56,56,48) (6)    
                                                                          S: conv2d_8_scratch0                                                
                                                                          W: conv2d_8_weights                             (48,8,1,1) (79)     
                                                                          W: conv2d_8_bias                                (1,1,1,8) (80)      
                                                                          O: conv2d_8_output                              (1,56,56,8) (7)     
-----------------------------------------------------------------------------------------------------------------------------------------------
7      conv2d_9                9    conv2d             1204272   576      I: conv2d_8_output                              (1,56,56,8) (7)     
                                                                          S: conv2d_9_scratch0                                                
                                                                          S: conv2d_9_scratch1                                                
                                                                          W: conv2d_9_weights                             (8,48,1,1) (81)     
                                                                          W: conv2d_9_bias                                (1,1,1,48) (82)     
                                                                          O: conv2d_9_output                              (1,56,56,48) (8)    
-----------------------------------------------------------------------------------------------------------------------------------------------
8      conv2d_10               10   conv2d             1354800   624      I: conv2d_9_output                              (1,56,56,48) (8)    
                                                                          S: conv2d_10_scratch0                                               
                                                                          S: conv2d_10_scratch1                                               
                                                                          W: conv2d_10_weights                            (48,1,3,3) (83)     
                                                                          W: conv2d_10_bias                               (1,1,1,48) (84)     
                                                                          O: conv2d_10_output                             (1,56,56,48) (9)    
-----------------------------------------------------------------------------------------------------------------------------------------------
9      conv2d_11               11   conv2d             1204232   416      I: conv2d_10_output                             (1,56,56,48) (9)    
                                                                          S: conv2d_11_scratch0                                               
                                                                          W: conv2d_11_weights                            (48,8,1,1) (85)     
                                                                          W: conv2d_11_bias                               (1,1,1,8) (86)      
                                                                          O: conv2d_11_output                             (1,56,56,8) (10)    
-----------------------------------------------------------------------------------------------------------------------------------------------
10     eltwise_12              12   eltwise_integer    25088     0        I: conv2d_8_output                              (1,56,56,8) (7)     
                                                                          I: conv2d_11_output                             (1,56,56,8) (10)    
                                                                          O: eltwise_12_output                            (1,56,56,8) (11)    
-----------------------------------------------------------------------------------------------------------------------------------------------
11     conv2d_13               13   conv2d             1204272   576      I: eltwise_12_output                            (1,56,56,8) (11)    
                                                                          S: conv2d_13_scratch0                                               
                                                                          S: conv2d_13_scratch1                                               
                                                                          W: conv2d_13_weights                            (8,48,1,1) (87)     
                                                                          W: conv2d_13_bias                               (1,1,1,48) (88)     
                                                                          O: conv2d_13_output                             (1,56,56,48) (12)   
-----------------------------------------------------------------------------------------------------------------------------------------------
12     conv2d_15               15   conv2d             338736    624      I: conv2d_13_output                             (1,56,56,48) (12)   
                                                                          S: conv2d_15_scratch0                                               
                                                                          S: conv2d_15_scratch1                                               
                                                                          W: conv2d_15_weights                            (48,1,3,3) (89)     
                                                                          W: conv2d_15_bias                               (1,1,1,48) (90)     
                                                                          O: conv2d_15_output                             (1,28,28,48) (13)   
-----------------------------------------------------------------------------------------------------------------------------------------------
13     conv2d_16               16   conv2d             602128    832      I: conv2d_15_output                             (1,28,28,48) (13)   
                                                                          S: conv2d_16_scratch0                                               
                                                                          W: conv2d_16_weights                            (48,16,1,1) (91)    
                                                                          W: conv2d_16_bias                               (1,1,1,16) (92)     
                                                                          O: conv2d_16_output                             (1,28,28,16) (14)   
-----------------------------------------------------------------------------------------------------------------------------------------------
14     conv2d_17               17   conv2d             1204320   1920     I: conv2d_16_output                             (1,28,28,16) (14)   
                                                                          S: conv2d_17_scratch0                                               
                                                                          S: conv2d_17_scratch1                                               
                                                                          W: conv2d_17_weights                            (16,96,1,1) (93)    
                                                                          W: conv2d_17_bias                               (1,1,1,96) (94)     
                                                                          O: conv2d_17_output                             (1,28,28,96) (15)   
-----------------------------------------------------------------------------------------------------------------------------------------------
15     conv2d_18               18   conv2d             677472    1248     I: conv2d_17_output                             (1,28,28,96) (15)   
                                                                          S: conv2d_18_scratch0                                               
                                                                          S: conv2d_18_scratch1                                               
                                                                          W: conv2d_18_weights                            (96,1,3,3) (95)     
                                                                          W: conv2d_18_bias                               (1,1,1,96) (96)     
                                                                          O: conv2d_18_output                             (1,28,28,96) (16)   
-----------------------------------------------------------------------------------------------------------------------------------------------
16     conv2d_19               19   conv2d             1204240   1600     I: conv2d_18_output                             (1,28,28,96) (16)   
                                                                          S: conv2d_19_scratch0                                               
                                                                          W: conv2d_19_weights                            (96,16,1,1) (97)    
                                                                          W: conv2d_19_bias                               (1,1,1,16) (98)     
                                                                          O: conv2d_19_output                             (1,28,28,16) (17)   
-----------------------------------------------------------------------------------------------------------------------------------------------
17     eltwise_20              20   eltwise_integer    12544     0        I: conv2d_16_output                             (1,28,28,16) (14)   
                                                                          I: conv2d_19_output                             (1,28,28,16) (17)   
                                                                          O: eltwise_20_output                            (1,28,28,16) (18)   
-----------------------------------------------------------------------------------------------------------------------------------------------
18     conv2d_21               21   conv2d             1204320   1920     I: eltwise_20_output                            (1,28,28,16) (18)   
                                                                          S: conv2d_21_scratch0                                               
                                                                          S: conv2d_21_scratch1                                               
                                                                          W: conv2d_21_weights                            (16,96,1,1) (99)    
                                                                          W: conv2d_21_bias                               (1,1,1,96) (100)    
                                                                          O: conv2d_21_output                             (1,28,28,96) (19)   
-----------------------------------------------------------------------------------------------------------------------------------------------
19     conv2d_22               22   conv2d             677472    1248     I: conv2d_21_output                             (1,28,28,96) (19)   
                                                                          S: conv2d_22_scratch0                                               
                                                                          S: conv2d_22_scratch1                                               
                                                                          W: conv2d_22_weights                            (96,1,3,3) (101)    
                                                                          W: conv2d_22_bias                               (1,1,1,96) (102)    
                                                                          O: conv2d_22_output                             (1,28,28,96) (20)   
-----------------------------------------------------------------------------------------------------------------------------------------------
20     conv2d_23               23   conv2d             1204240   1600     I: conv2d_22_output                             (1,28,28,96) (20)   
                                                                          S: conv2d_23_scratch0                                               
                                                                          W: conv2d_23_weights                            (96,16,1,1) (103)   
                                                                          W: conv2d_23_bias                               (1,1,1,16) (104)    
                                                                          O: conv2d_23_output                             (1,28,28,16) (21)   
-----------------------------------------------------------------------------------------------------------------------------------------------
21     eltwise_24              24   eltwise_integer    12544     0        I: eltwise_20_output                            (1,28,28,16) (18)   
                                                                          I: conv2d_23_output                             (1,28,28,16) (21)   
                                                                          O: eltwise_24_output                            (1,28,28,16) (22)   
-----------------------------------------------------------------------------------------------------------------------------------------------
22     conv2d_25               25   conv2d             1204320   1920     I: eltwise_24_output                            (1,28,28,16) (22)   
                                                                          S: conv2d_25_scratch0                                               
                                                                          S: conv2d_25_scratch1                                               
                                                                          W: conv2d_25_weights                            (16,96,1,1) (105)   
                                                                          W: conv2d_25_bias                               (1,1,1,96) (106)    
                                                                          O: conv2d_25_output                             (1,28,28,96) (23)   
-----------------------------------------------------------------------------------------------------------------------------------------------
23     conv2d_27               27   conv2d             169440    1248     I: conv2d_25_output                             (1,28,28,96) (23)   
                                                                          S: conv2d_27_scratch0                                               
                                                                          S: conv2d_27_scratch1                                               
                                                                          W: conv2d_27_weights                            (96,1,3,3) (107)    
                                                                          W: conv2d_27_bias                               (1,1,1,96) (108)    
                                                                          O: conv2d_27_output                             (1,14,14,96) (24)   
-----------------------------------------------------------------------------------------------------------------------------------------------
24     conv2d_28               28   conv2d             451608    2400     I: conv2d_27_output                             (1,14,14,96) (24)   
                                                                          S: conv2d_28_scratch0                                               
                                                                          W: conv2d_28_weights                            (96,24,1,1) (109)   
                                                                          W: conv2d_28_bias                               (1,1,1,24) (110)    
                                                                          O: conv2d_28_output                             (1,14,14,24) (25)   
-----------------------------------------------------------------------------------------------------------------------------------------------
25     conv2d_29               29   conv2d             677520    4032     I: conv2d_28_output                             (1,14,14,24) (25)   
                                                                          S: conv2d_29_scratch0                                               
                                                                          S: conv2d_29_scratch1                                               
                                                                          W: conv2d_29_weights                            (24,144,1,1) (111)  
                                                                          W: conv2d_29_bias                               (1,1,1,144) (112)   
                                                                          O: conv2d_29_output                             (1,14,14,144) (26)  
-----------------------------------------------------------------------------------------------------------------------------------------------
26     conv2d_30               30   conv2d             254160    1872     I: conv2d_29_output                             (1,14,14,144) (26)  
                                                                          S: conv2d_30_scratch0                                               
                                                                          S: conv2d_30_scratch1                                               
                                                                          W: conv2d_30_weights                            (144,1,3,3) (113)   
                                                                          W: conv2d_30_bias                               (1,1,1,144) (114)   
                                                                          O: conv2d_30_output                             (1,14,14,144) (27)  
-----------------------------------------------------------------------------------------------------------------------------------------------
27     conv2d_31               31   conv2d             677400    3552     I: conv2d_30_output                             (1,14,14,144) (27)  
                                                                          S: conv2d_31_scratch0                                               
                                                                          W: conv2d_31_weights                            (144,24,1,1) (115)  
                                                                          W: conv2d_31_bias                               (1,1,1,24) (116)    
                                                                          O: conv2d_31_output                             (1,14,14,24) (28)   
-----------------------------------------------------------------------------------------------------------------------------------------------
28     eltwise_32              32   eltwise_integer    4704      0        I: conv2d_28_output                             (1,14,14,24) (25)   
                                                                          I: conv2d_31_output                             (1,14,14,24) (28)   
                                                                          O: eltwise_32_output                            (1,14,14,24) (29)   
-----------------------------------------------------------------------------------------------------------------------------------------------
29     conv2d_33               33   conv2d             677520    4032     I: eltwise_32_output                            (1,14,14,24) (29)   
                                                                          S: conv2d_33_scratch0                                               
                                                                          S: conv2d_33_scratch1                                               
                                                                          W: conv2d_33_weights                            (24,144,1,1) (117)  
                                                                          W: conv2d_33_bias                               (1,1,1,144) (118)   
                                                                          O: conv2d_33_output                             (1,14,14,144) (30)  
-----------------------------------------------------------------------------------------------------------------------------------------------
30     conv2d_34               34   conv2d             254160    1872     I: conv2d_33_output                             (1,14,14,144) (30)  
                                                                          S: conv2d_34_scratch0                                               
                                                                          S: conv2d_34_scratch1                                               
                                                                          W: conv2d_34_weights                            (144,1,3,3) (119)   
                                                                          W: conv2d_34_bias                               (1,1,1,144) (120)   
                                                                          O: conv2d_34_output                             (1,14,14,144) (31)  
-----------------------------------------------------------------------------------------------------------------------------------------------
31     conv2d_35               35   conv2d             677400    3552     I: conv2d_34_output                             (1,14,14,144) (31)  
                                                                          S: conv2d_35_scratch0                                               
                                                                          W: conv2d_35_weights                            (144,24,1,1) (121)  
                                                                          W: conv2d_35_bias                               (1,1,1,24) (122)    
                                                                          O: conv2d_35_output                             (1,14,14,24) (32)   
-----------------------------------------------------------------------------------------------------------------------------------------------
32     eltwise_36              36   eltwise_integer    4704      0        I: eltwise_32_output                            (1,14,14,24) (29)   
                                                                          I: conv2d_35_output                             (1,14,14,24) (32)   
                                                                          O: eltwise_36_output                            (1,14,14,24) (33)   
-----------------------------------------------------------------------------------------------------------------------------------------------
33     conv2d_37               37   conv2d             677520    4032     I: eltwise_36_output                            (1,14,14,24) (33)   
                                                                          S: conv2d_37_scratch0                                               
                                                                          S: conv2d_37_scratch1                                               
                                                                          W: conv2d_37_weights                            (24,144,1,1) (123)  
                                                                          W: conv2d_37_bias                               (1,1,1,144) (124)   
                                                                          O: conv2d_37_output                             (1,14,14,144) (34)  
-----------------------------------------------------------------------------------------------------------------------------------------------
34     conv2d_38               38   conv2d             254160    1872     I: conv2d_37_output                             (1,14,14,144) (34)  
                                                                          S: conv2d_38_scratch0                                               
                                                                          S: conv2d_38_scratch1                                               
                                                                          W: conv2d_38_weights                            (144,1,3,3) (125)   
                                                                          W: conv2d_38_bias                               (1,1,1,144) (126)   
                                                                          O: conv2d_38_output                             (1,14,14,144) (35)  
-----------------------------------------------------------------------------------------------------------------------------------------------
35     conv2d_39               39   conv2d             677400    3552     I: conv2d_38_output                             (1,14,14,144) (35)  
                                                                          S: conv2d_39_scratch0                                               
                                                                          W: conv2d_39_weights                            (144,24,1,1) (127)  
                                                                          W: conv2d_39_bias                               (1,1,1,24) (128)    
                                                                          O: conv2d_39_output                             (1,14,14,24) (36)   
-----------------------------------------------------------------------------------------------------------------------------------------------
36     eltwise_40              40   eltwise_integer    4704      0        I: eltwise_36_output                            (1,14,14,24) (33)   
                                                                          I: conv2d_39_output                             (1,14,14,24) (36)   
                                                                          O: eltwise_40_output                            (1,14,14,24) (37)   
-----------------------------------------------------------------------------------------------------------------------------------------------
37     conv2d_41               41   conv2d             677520    4032     I: eltwise_40_output                            (1,14,14,24) (37)   
                                                                          S: conv2d_41_scratch0                                               
                                                                          S: conv2d_41_scratch1                                               
                                                                          W: conv2d_41_weights                            (24,144,1,1) (129)  
                                                                          W: conv2d_41_bias                               (1,1,1,144) (130)   
                                                                          O: conv2d_41_output                             (1,14,14,144) (38)  
-----------------------------------------------------------------------------------------------------------------------------------------------
38     conv2d_42               42   conv2d             254160    1872     I: conv2d_41_output                             (1,14,14,144) (38)  
                                                                          S: conv2d_42_scratch0                                               
                                                                          S: conv2d_42_scratch1                                               
                                                                          W: conv2d_42_weights                            (144,1,3,3) (131)   
                                                                          W: conv2d_42_bias                               (1,1,1,144) (132)   
                                                                          O: conv2d_42_output                             (1,14,14,144) (39)  
-----------------------------------------------------------------------------------------------------------------------------------------------
39     conv2d_43               43   conv2d             903200    4736     I: conv2d_42_output                             (1,14,14,144) (39)  
                                                                          S: conv2d_43_scratch0                                               
                                                                          W: conv2d_43_weights                            (144,32,1,1) (133)  
                                                                          W: conv2d_43_bias                               (1,1,1,32) (134)    
                                                                          O: conv2d_43_output                             (1,14,14,32) (40)   
-----------------------------------------------------------------------------------------------------------------------------------------------
40     conv2d_44               44   conv2d             1204416   6912     I: conv2d_43_output                             (1,14,14,32) (40)   
                                                                          S: conv2d_44_scratch0                                               
                                                                          S: conv2d_44_scratch1                                               
                                                                          W: conv2d_44_weights                            (32,192,1,1) (135)  
                                                                          W: conv2d_44_bias                               (1,1,1,192) (136)   
                                                                          O: conv2d_44_output                             (1,14,14,192) (41)  
-----------------------------------------------------------------------------------------------------------------------------------------------
41     conv2d_45               45   conv2d             338880    2496     I: conv2d_44_output                             (1,14,14,192) (41)  
                                                                          S: conv2d_45_scratch0                                               
                                                                          S: conv2d_45_scratch1                                               
                                                                          W: conv2d_45_weights                            (192,1,3,3) (137)   
                                                                          W: conv2d_45_bias                               (1,1,1,192) (138)   
                                                                          O: conv2d_45_output                             (1,14,14,192) (42)  
-----------------------------------------------------------------------------------------------------------------------------------------------
42     conv2d_46               46   conv2d             1204256   6272     I: conv2d_45_output                             (1,14,14,192) (42)  
                                                                          S: conv2d_46_scratch0                                               
                                                                          W: conv2d_46_weights                            (192,32,1,1) (139)  
                                                                          W: conv2d_46_bias                               (1,1,1,32) (140)    
                                                                          O: conv2d_46_output                             (1,14,14,32) (43)   
-----------------------------------------------------------------------------------------------------------------------------------------------
43     eltwise_47              47   eltwise_integer    6272      0        I: conv2d_43_output                             (1,14,14,32) (40)   
                                                                          I: conv2d_46_output                             (1,14,14,32) (43)   
                                                                          O: eltwise_47_output                            (1,14,14,32) (44)   
-----------------------------------------------------------------------------------------------------------------------------------------------
44     conv2d_48               48   conv2d             1204416   6912     I: eltwise_47_output                            (1,14,14,32) (44)   
                                                                          S: conv2d_48_scratch0                                               
                                                                          S: conv2d_48_scratch1                                               
                                                                          W: conv2d_48_weights                            (32,192,1,1) (141)  
                                                                          W: conv2d_48_bias                               (1,1,1,192) (142)   
                                                                          O: conv2d_48_output                             (1,14,14,192) (45)  
-----------------------------------------------------------------------------------------------------------------------------------------------
45     conv2d_49               49   conv2d             338880    2496     I: conv2d_48_output                             (1,14,14,192) (45)  
                                                                          S: conv2d_49_scratch0                                               
                                                                          S: conv2d_49_scratch1                                               
                                                                          W: conv2d_49_weights                            (192,1,3,3) (143)   
                                                                          W: conv2d_49_bias                               (1,1,1,192) (144)   
                                                                          O: conv2d_49_output                             (1,14,14,192) (46)  
-----------------------------------------------------------------------------------------------------------------------------------------------
46     conv2d_50               50   conv2d             1204256   6272     I: conv2d_49_output                             (1,14,14,192) (46)  
                                                                          S: conv2d_50_scratch0                                               
                                                                          W: conv2d_50_weights                            (192,32,1,1) (145)  
                                                                          W: conv2d_50_bias                               (1,1,1,32) (146)    
                                                                          O: conv2d_50_output                             (1,14,14,32) (47)   
-----------------------------------------------------------------------------------------------------------------------------------------------
47     eltwise_51              51   eltwise_integer    6272      0        I: eltwise_47_output                            (1,14,14,32) (44)   
                                                                          I: conv2d_50_output                             (1,14,14,32) (47)   
                                                                          O: eltwise_51_output                            (1,14,14,32) (48)   
-----------------------------------------------------------------------------------------------------------------------------------------------
48     conv2d_52               52   conv2d             1204416   6912     I: eltwise_51_output                            (1,14,14,32) (48)   
                                                                          S: conv2d_52_scratch0                                               
                                                                          S: conv2d_52_scratch1                                               
                                                                          W: conv2d_52_weights                            (32,192,1,1) (147)  
                                                                          W: conv2d_52_bias                               (1,1,1,192) (148)   
                                                                          O: conv2d_52_output                             (1,14,14,192) (49)  
-----------------------------------------------------------------------------------------------------------------------------------------------
49     conv2d_54               54   conv2d             84864     2496     I: conv2d_52_output                             (1,14,14,192) (49)  
                                                                          S: conv2d_54_scratch0                                               
                                                                          S: conv2d_54_scratch1                                               
                                                                          W: conv2d_54_weights                            (192,1,3,3) (149)   
                                                                          W: conv2d_54_bias                               (1,1,1,192) (150)   
                                                                          O: conv2d_54_output                             (1,7,7,192) (50)    
-----------------------------------------------------------------------------------------------------------------------------------------------
50     conv2d_55               55   conv2d             526904    10976    I: conv2d_54_output                             (1,7,7,192) (50)    
                                                                          S: conv2d_55_scratch0                                               
                                                                          W: conv2d_55_weights                            (192,56,1,1) (151)  
                                                                          W: conv2d_55_bias                               (1,1,1,56) (152)    
                                                                          O: conv2d_55_output                             (1,7,7,56) (51)     
-----------------------------------------------------------------------------------------------------------------------------------------------
51     conv2d_56               56   conv2d             922320    20160    I: conv2d_55_output                             (1,7,7,56) (51)     
                                                                          S: conv2d_56_scratch0                                               
                                                                          S: conv2d_56_scratch1                                               
                                                                          W: conv2d_56_weights                            (56,336,1,1) (153)  
                                                                          W: conv2d_56_bias                               (1,1,1,336) (154)   
                                                                          O: conv2d_56_output                             (1,7,7,336) (52)    
-----------------------------------------------------------------------------------------------------------------------------------------------
52     conv2d_57               57   conv2d             148512    4368     I: conv2d_56_output                             (1,7,7,336) (52)    
                                                                          S: conv2d_57_scratch0                                               
                                                                          S: conv2d_57_scratch1                                               
                                                                          W: conv2d_57_weights                            (336,1,3,3) (155)   
                                                                          W: conv2d_57_bias                               (1,1,1,336) (156)   
                                                                          O: conv2d_57_output                             (1,7,7,336) (53)    
-----------------------------------------------------------------------------------------------------------------------------------------------
53     conv2d_58               58   conv2d             922040    19040    I: conv2d_57_output                             (1,7,7,336) (53)    
                                                                          S: conv2d_58_scratch0                                               
                                                                          W: conv2d_58_weights                            (336,56,1,1) (157)  
                                                                          W: conv2d_58_bias                               (1,1,1,56) (158)    
                                                                          O: conv2d_58_output                             (1,7,7,56) (54)     
-----------------------------------------------------------------------------------------------------------------------------------------------
54     eltwise_59              59   eltwise_integer    2744      0        I: conv2d_55_output                             (1,7,7,56) (51)     
                                                                          I: conv2d_58_output                             (1,7,7,56) (54)     
                                                                          O: eltwise_59_output                            (1,7,7,56) (55)     
-----------------------------------------------------------------------------------------------------------------------------------------------
55     conv2d_60               60   conv2d             922320    20160    I: eltwise_59_output                            (1,7,7,56) (55)     
                                                                          S: conv2d_60_scratch0                                               
                                                                          S: conv2d_60_scratch1                                               
                                                                          W: conv2d_60_weights                            (56,336,1,1) (159)  
                                                                          W: conv2d_60_bias                               (1,1,1,336) (160)   
                                                                          O: conv2d_60_output                             (1,7,7,336) (56)    
-----------------------------------------------------------------------------------------------------------------------------------------------
56     conv2d_61               61   conv2d             148512    4368     I: conv2d_60_output                             (1,7,7,336) (56)    
                                                                          S: conv2d_61_scratch0                                               
                                                                          S: conv2d_61_scratch1                                               
                                                                          W: conv2d_61_weights                            (336,1,3,3) (161)   
                                                                          W: conv2d_61_bias                               (1,1,1,336) (162)   
                                                                          O: conv2d_61_output                             (1,7,7,336) (57)    
-----------------------------------------------------------------------------------------------------------------------------------------------
57     conv2d_62               62   conv2d             922040    19040    I: conv2d_61_output                             (1,7,7,336) (57)    
                                                                          S: conv2d_62_scratch0                                               
                                                                          W: conv2d_62_weights                            (336,56,1,1) (163)  
                                                                          W: conv2d_62_bias                               (1,1,1,56) (164)    
                                                                          O: conv2d_62_output                             (1,7,7,56) (58)     
-----------------------------------------------------------------------------------------------------------------------------------------------
58     eltwise_63              63   eltwise_integer    2744      0        I: eltwise_59_output                            (1,7,7,56) (55)     
                                                                          I: conv2d_62_output                             (1,7,7,56) (58)     
                                                                          O: eltwise_63_output                            (1,7,7,56) (59)     
-----------------------------------------------------------------------------------------------------------------------------------------------
59     conv2d_64               64   conv2d             922320    20160    I: eltwise_63_output                            (1,7,7,56) (59)     
                                                                          S: conv2d_64_scratch0                                               
                                                                          S: conv2d_64_scratch1                                               
                                                                          W: conv2d_64_weights                            (56,336,1,1) (165)  
                                                                          W: conv2d_64_bias                               (1,1,1,336) (166)   
                                                                          O: conv2d_64_output                             (1,7,7,336) (60)    
-----------------------------------------------------------------------------------------------------------------------------------------------
60     conv2d_65               65   conv2d             148512    4368     I: conv2d_64_output                             (1,7,7,336) (60)    
                                                                          S: conv2d_65_scratch0                                               
                                                                          S: conv2d_65_scratch1                                               
                                                                          W: conv2d_65_weights                            (336,1,3,3) (167)   
                                                                          W: conv2d_65_bias                               (1,1,1,336) (168)   
                                                                          O: conv2d_65_output                             (1,7,7,336) (61)    
-----------------------------------------------------------------------------------------------------------------------------------------------
61     conv2d_66               66   conv2d             1844080   38080    I: conv2d_65_output                             (1,7,7,336) (61)    
                                                                          S: conv2d_66_scratch0                                               
                                                                          W: conv2d_66_weights                            (336,112,1,1) (169) 
                                                                          W: conv2d_66_bias                               (1,1,1,112) (170)   
                                                                          O: conv2d_66_output                             (1,7,7,112) (62)    
-----------------------------------------------------------------------------------------------------------------------------------------------
62     conv2d_67               68   optimized_conv2d   7088640   148480   I: conv2d_66_output                             (1,7,7,112) (62)    
                                                                          S: conv2d_67_scratch0                                               
                                                                          S: conv2d_67_scratch1                                               
                                                                          S: conv2d_67_scratch2                                               
                                                                          W: conv2d_67_weights                            (112,1280,1,1) (171)
                                                                          W: conv2d_67_bias                               (1,1,1,1280) (172)  
                                                                          O: conv2d_67_output                             (1,1,1,1280) (63)   
-----------------------------------------------------------------------------------------------------------------------------------------------
63     dense_69                69   dense              128100    128400   I: conv2d_67_output                             (1,1,1,1280) (63)   
                                                                          W: dense_69_weights                             (1280,1,1,100) (173)
                                                                          W: dense_69_bias                                (1,1,1,100) (174)   
                                                                          O: dense_69_output                              (1,1,1,100) (64)    
-----------------------------------------------------------------------------------------------------------------------------------------------
64     dense_70                70   dense              303       312      I: dense_69_output                              (1,1,1,100) (64)    
                                                                          W: dense_70_weights                             (100,1,1,3) (175)   
                                                                          W: dense_70_bias                                (1,1,1,3) (176)     
                                                                          O: dense_70_output                              (1,1,1,3) (65)      
-----------------------------------------------------------------------------------------------------------------------------------------------
65     dense_70_0_conversion   70   conv               6         0        I: dense_70_output                              (1,1,1,3) (65)      
                                                                          O: dense_70_0_conversion_output                 (1,1,1,3) (66)      
-----------------------------------------------------------------------------------------------------------------------------------------------
66     nl_71                   71   nl                 45        0        I: dense_70_0_conversion_output                 (1,1,1,3) (66)      
                                                                          O: nl_71_output                                 (1,1,1,3) (67)      
-----------------------------------------------------------------------------------------------------------------------------------------------
67     nl_71_0_conversion      71   conv               6         0        I: nl_71_output                                 (1,1,1,3) (67)      
                                                                          O: nl_71_0_conversion_output                    (1,1,1,3) (68)      
-----------------------------------------------------------------------------------------------------------------------------------------------



Complexity report per layer - macc=58,587,404 weights=538,920 act=610,784 ram_io=150,531
---------------------------------------------------------------------------------
id   name           c_macc                    c_rom                     c_id    
---------------------------------------------------------------------------------
0    conversion_0   |                  0.5%   |                  0.0%   [0]     
2    conv2d_2       ||||||||||||       9.2%   |                  0.1%   [1]     
3    conv2d_3       ||||               3.1%   |                  0.0%   [2]     
4    conv2d_4       ||||               2.7%   |                  0.0%   [3]     
5    conv2d_5       |||||||||||        8.2%   |                  0.1%   [4]     
7    conv2d_7       |||                2.3%   |                  0.1%   [5]     
8    conv2d_8       |||                2.1%   |                  0.1%   [6]     
9    conv2d_9       |||                2.1%   |                  0.1%   [7]     
10   conv2d_10      |||                2.3%   |                  0.1%   [8]     
11   conv2d_11      |||                2.1%   |                  0.1%   [9]     
12   eltwise_12     |                  0.0%   |                  0.0%   [10]    
13   conv2d_13      |||                2.1%   |                  0.1%   [11]    
15   conv2d_15      |                  0.6%   |                  0.1%   [12]    
16   conv2d_16      ||                 1.0%   |                  0.2%   [13]    
17   conv2d_17      |||                2.1%   |                  0.4%   [14]    
18   conv2d_18      ||                 1.2%   |                  0.2%   [15]    
19   conv2d_19      |||                2.1%   |                  0.3%   [16]    
20   eltwise_20     |                  0.0%   |                  0.0%   [17]    
21   conv2d_21      |||                2.1%   |                  0.4%   [18]    
22   conv2d_22      ||                 1.2%   |                  0.2%   [19]    
23   conv2d_23      |||                2.1%   |                  0.3%   [20]    
24   eltwise_24     |                  0.0%   |                  0.0%   [21]    
25   conv2d_25      |||                2.1%   |                  0.4%   [22]    
27   conv2d_27      |                  0.3%   |                  0.2%   [23]    
28   conv2d_28      |                  0.8%   |                  0.4%   [24]    
29   conv2d_29      ||                 1.2%   |                  0.7%   [25]    
30   conv2d_30      |                  0.4%   |                  0.3%   [26]    
31   conv2d_31      ||                 1.2%   |                  0.7%   [27]    
32   eltwise_32     |                  0.0%   |                  0.0%   [28]    
33   conv2d_33      ||                 1.2%   |                  0.7%   [29]    
34   conv2d_34      |                  0.4%   |                  0.3%   [30]    
35   conv2d_35      ||                 1.2%   |                  0.7%   [31]    
36   eltwise_36     |                  0.0%   |                  0.0%   [32]    
37   conv2d_37      ||                 1.2%   |                  0.7%   [33]    
38   conv2d_38      |                  0.4%   |                  0.3%   [34]    
39   conv2d_39      ||                 1.2%   |                  0.7%   [35]    
40   eltwise_40     |                  0.0%   |                  0.0%   [36]    
41   conv2d_41      ||                 1.2%   |                  0.7%   [37]    
42   conv2d_42      |                  0.4%   |                  0.3%   [38]    
43   conv2d_43      ||                 1.5%   |                  0.9%   [39]    
44   conv2d_44      |||                2.1%   |                  1.3%   [40]    
45   conv2d_45      |                  0.6%   |                  0.5%   [41]    
46   conv2d_46      |||                2.1%   |                  1.2%   [42]    
47   eltwise_47     |                  0.0%   |                  0.0%   [43]    
48   conv2d_48      |||                2.1%   |                  1.3%   [44]    
49   conv2d_49      |                  0.6%   |                  0.5%   [45]    
50   conv2d_50      |||                2.1%   |                  1.2%   [46]    
51   eltwise_51     |                  0.0%   |                  0.0%   [47]    
52   conv2d_52      |||                2.1%   |                  1.3%   [48]    
54   conv2d_54      |                  0.1%   |                  0.5%   [49]    
55   conv2d_55      ||                 0.9%   ||                 2.0%   [50]    
56   conv2d_56      ||                 1.6%   |||                3.7%   [51]    
57   conv2d_57      |                  0.3%   |                  0.8%   [52]    
58   conv2d_58      ||                 1.6%   ||                 3.5%   [53]    
59   eltwise_59     |                  0.0%   |                  0.0%   [54]    
60   conv2d_60      ||                 1.6%   |||                3.7%   [55]    
61   conv2d_61      |                  0.3%   |                  0.8%   [56]    
62   conv2d_62      ||                 1.6%   ||                 3.5%   [57]    
63   eltwise_63     |                  0.0%   |                  0.0%   [58]    
64   conv2d_64      ||                 1.6%   |||                3.7%   [59]    
65   conv2d_65      |                  0.3%   |                  0.8%   [60]    
66   conv2d_66      ||||               3.1%   ||||               7.1%   [61]    
67   conv2d_67      ||||||||||||||||  12.1%   ||||||||||||||||  27.6%   [62]    
69   dense_69       |                  0.2%   |||||||||||||     23.8%   [63]    
70   dense_70       |                  0.0%   |                  0.1%   [64, 65]
71   nl_71          |                  0.0%   |                  0.0%   [66, 67]

Generated files (5)
---------------------------------------------------------------------
/Users/edoardo/.stm32cubemx/network_output/network_config.h
/Users/edoardo/.stm32cubemx/network_output/network.h
/Users/edoardo/.stm32cubemx/network_output/network.c
/Users/edoardo/.stm32cubemx/network_output/network_data.h
/Users/edoardo/.stm32cubemx/network_output/network_data.c
