Neural Network Tools for STM32AI v1.6.0 (STM.ai v7.1.0-RC3)
Created date          : 2022-08-04 12:19:43
Parameters            : generate --name network -m /Users/edoardo/STM32CubeIDE/workspace_1.10.1/stm32f4-ai-framework/Models/persondetection/mobv2_128x128x3.tflite --type tflite --compression 1 --verbosity 1 --workspace /var/folders/48/l0spqxpd4fb53zl2tk8w7hq00000gn/T/mxAI_workspace9709383225245500249488484043981 --output /Users/edoardo/.stm32cubemx/network_output

Exec/report summary (generate)
------------------------------------------------------------------------------------------------------------------------
model file            : /Users/edoardo/STM32CubeIDE/workspace_1.10.1/stm32f4-ai-framework/Models/persondetection/mobv2_128x128x3.tflite
type                  : tflite
c_name                : network
compression           : None
allocator strategy    : ['multi-heaps']
target info           : /private/var/folders/48/l0spqxpd4fb53zl2tk8w7hq00000gn/T/mxAI_workspace9709383225245500249488484043981/mempools.json
workspace dir         : /private/var/folders/48/l0spqxpd4fb53zl2tk8w7hq00000gn/T/mxAI_workspace9709383225245500249488484043981
output dir            : /Users/edoardo/.stm32cubemx/network_output
model_name            : mobv2_128x128x3
model_hash            : 465e8b22dc4453af931031f0637739ff
input 1/1             : 'input_1'
                        49152 items, 48.00 KiB, ai_u8, scale=0.00784314, zero_point=127, (1,128,128,3), domain:user/
output 1/1            : 'nl_70_0_conversion'
                        2 items, 2 B, ai_u8, scale=0.00390625, zero_point=0, (1,1,1,2), domain:user/
params #              : 391,650 items (403.10 KiB)
macc                  : 19,095,976
weights (ro)          : 412,776 B (403.10 KiB) (1 segment)
activations (rw)      : 201,824 B (197.09 KiB) (1 segment)
ram (total)           : 250,978 B (245.10 KiB) = 201,824 + 49,152 + 2

Memory-pools summary (activations/ domain)
------------------------------------------------------
name   id   usable size   used                buffer#
------------------------------------------------------
pool   0    4.00 MiB      197.09 KiB (4.8%)   154    
------------------------------------------------------

Model name - mobv2_128x128x3 ['input_1'] ['conversion_71']
----------------------------------------------------------------------------------------------------------------------------------------------------------------
id   layer (type)                   oshape          param/size        macc        connected to         |   c_size   c_macc              c_type                 
----------------------------------------------------------------------------------------------------------------------------------------------------------------
0    input_1 (Input)                (1,128,128,3)                                                      |                               
     conversion_0 (Conversion)      (1,128,128,3)                     98,304      input_1              |                                conv(i)[0]             
----------------------------------------------------------------------------------------------------------------------------------------------------------------
1    pad_1 (Pad)                    (1,129,129,3)                                 conversion_0         |                               
----------------------------------------------------------------------------------------------------------------------------------------------------------------
2    conv2d_2 (Conv2D)              (1,64,64,16)    448/496           1,769,488   pad_1                |                                conv2d(i)[1]           
     nl_2_nl (Nonlinearity)         (1,64,64,16)                      65,536      conv2d_2             |            -65,536(-100.0%)   
----------------------------------------------------------------------------------------------------------------------------------------------------------------
3    conv2d_3 (Conv2D)              (1,64,64,16)    160/208           589,840     nl_2_nl              |                                conv2d(i)[2]           
     nl_3_nl (Nonlinearity)         (1,64,64,16)                      65,536      conv2d_3             |            -65,536(-100.0%)   
----------------------------------------------------------------------------------------------------------------------------------------------------------------
4    conv2d_4 (Conv2D)              (1,64,64,8)     136/160           524,296     nl_3_nl              |                                conv2d(i)[3]           
----------------------------------------------------------------------------------------------------------------------------------------------------------------
5    conv2d_5 (Conv2D)              (1,64,64,48)    432/576           1,572,912   conv2d_4             |                                conv2d(i)[4]           
     nl_5_nl (Nonlinearity)         (1,64,64,48)                      196,608     conv2d_5             |            -196,608(-100.0%)  
----------------------------------------------------------------------------------------------------------------------------------------------------------------
6    pad_6 (Pad)                    (1,65,65,48)                                  nl_5_nl              |                               
----------------------------------------------------------------------------------------------------------------------------------------------------------------
7    conv2d_7 (Conv2D)              (1,32,32,48)    480/624           442,416     pad_6                |                                conv2d(i)[5]           
     nl_7_nl (Nonlinearity)         (1,32,32,48)                      49,152      conv2d_7             |            -49,152(-100.0%)   
----------------------------------------------------------------------------------------------------------------------------------------------------------------
8    conv2d_8 (Conv2D)              (1,32,32,8)     392/416           393,224     nl_7_nl              |                                conv2d(i)[6]           
----------------------------------------------------------------------------------------------------------------------------------------------------------------
9    conv2d_9 (Conv2D)              (1,32,32,48)    432/576           393,264     conv2d_8             |                                conv2d(i)[7]           
     nl_9_nl (Nonlinearity)         (1,32,32,48)                      49,152      conv2d_9             |            -49,152(-100.0%)   
----------------------------------------------------------------------------------------------------------------------------------------------------------------
10   conv2d_10 (Conv2D)             (1,32,32,48)    480/624           442,416     nl_9_nl              |                                conv2d(i)[8]           
     nl_10_nl (Nonlinearity)        (1,32,32,48)                      49,152      conv2d_10            |            -49,152(-100.0%)   
----------------------------------------------------------------------------------------------------------------------------------------------------------------
11   conv2d_11 (Conv2D)             (1,32,32,8)     392/416           393,224     nl_10_nl             |                                conv2d(i)[9]           
----------------------------------------------------------------------------------------------------------------------------------------------------------------
12   eltwise_12 (Eltwise)           (1,32,32,8)                       8,192       conv2d_8             |                                eltwise_integer(i)[10] 
                                                                                  conv2d_11            |  
----------------------------------------------------------------------------------------------------------------------------------------------------------------
13   conv2d_13 (Conv2D)             (1,32,32,48)    432/576           393,264     eltwise_12           |                                conv2d(i)[11]          
     nl_13_nl (Nonlinearity)        (1,32,32,48)                      49,152      conv2d_13            |            -49,152(-100.0%)   
----------------------------------------------------------------------------------------------------------------------------------------------------------------
14   pad_14 (Pad)                   (1,33,33,48)                                  nl_13_nl             |                               
----------------------------------------------------------------------------------------------------------------------------------------------------------------
15   conv2d_15 (Conv2D)             (1,16,16,48)    480/624           110,640     pad_14               |                                conv2d(i)[12]          
     nl_15_nl (Nonlinearity)        (1,16,16,48)                      12,288      conv2d_15            |            -12,288(-100.0%)   
----------------------------------------------------------------------------------------------------------------------------------------------------------------
16   conv2d_16 (Conv2D)             (1,16,16,16)    784/832           196,624     nl_15_nl             |                                conv2d(i)[13]          
----------------------------------------------------------------------------------------------------------------------------------------------------------------
17   conv2d_17 (Conv2D)             (1,16,16,96)    1,632/1,920       393,312     conv2d_16            |                                conv2d(i)[14]          
     nl_17_nl (Nonlinearity)        (1,16,16,96)                      24,576      conv2d_17            |            -24,576(-100.0%)   
----------------------------------------------------------------------------------------------------------------------------------------------------------------
18   conv2d_18 (Conv2D)             (1,16,16,96)    960/1,248         221,280     nl_17_nl             |                                conv2d(i)[15]          
     nl_18_nl (Nonlinearity)        (1,16,16,96)                      24,576      conv2d_18            |            -24,576(-100.0%)   
----------------------------------------------------------------------------------------------------------------------------------------------------------------
19   conv2d_19 (Conv2D)             (1,16,16,16)    1,552/1,600       393,232     nl_18_nl             |                                conv2d(i)[16]          
----------------------------------------------------------------------------------------------------------------------------------------------------------------
20   eltwise_20 (Eltwise)           (1,16,16,16)                      4,096       conv2d_16            |                                eltwise_integer(i)[17] 
                                                                                  conv2d_19            |  
----------------------------------------------------------------------------------------------------------------------------------------------------------------
21   conv2d_21 (Conv2D)             (1,16,16,96)    1,632/1,920       393,312     eltwise_20           |                                conv2d(i)[18]          
     nl_21_nl (Nonlinearity)        (1,16,16,96)                      24,576      conv2d_21            |            -24,576(-100.0%)   
----------------------------------------------------------------------------------------------------------------------------------------------------------------
22   conv2d_22 (Conv2D)             (1,16,16,96)    960/1,248         221,280     nl_21_nl             |                                conv2d(i)[19]          
     nl_22_nl (Nonlinearity)        (1,16,16,96)                      24,576      conv2d_22            |            -24,576(-100.0%)   
----------------------------------------------------------------------------------------------------------------------------------------------------------------
23   conv2d_23 (Conv2D)             (1,16,16,16)    1,552/1,600       393,232     nl_22_nl             |                                conv2d(i)[20]          
----------------------------------------------------------------------------------------------------------------------------------------------------------------
24   eltwise_24 (Eltwise)           (1,16,16,16)                      4,096       eltwise_20           |                                eltwise_integer(i)[21] 
                                                                                  conv2d_23            |  
----------------------------------------------------------------------------------------------------------------------------------------------------------------
25   conv2d_25 (Conv2D)             (1,16,16,96)    1,632/1,920       393,312     eltwise_24           |                                conv2d(i)[22]          
     nl_25_nl (Nonlinearity)        (1,16,16,96)                      24,576      conv2d_25            |            -24,576(-100.0%)   
----------------------------------------------------------------------------------------------------------------------------------------------------------------
26   pad_26 (Pad)                   (1,17,17,96)                                  nl_25_nl             |                               
----------------------------------------------------------------------------------------------------------------------------------------------------------------
27   conv2d_27 (Conv2D)             (1,8,8,96)      960/1,248         55,392      pad_26               |                                conv2d(i)[23]          
     nl_27_nl (Nonlinearity)        (1,8,8,96)                        6,144       conv2d_27            |            -6,144(-100.0%)    
----------------------------------------------------------------------------------------------------------------------------------------------------------------
28   conv2d_28 (Conv2D)             (1,8,8,24)      2,328/2,400       147,480     nl_27_nl             |                                conv2d(i)[24]          
----------------------------------------------------------------------------------------------------------------------------------------------------------------
29   conv2d_29 (Conv2D)             (1,8,8,144)     3,600/4,032       221,328     conv2d_28            |                                conv2d(i)[25]          
     nl_29_nl (Nonlinearity)        (1,8,8,144)                       9,216       conv2d_29            |            -9,216(-100.0%)    
----------------------------------------------------------------------------------------------------------------------------------------------------------------
30   conv2d_30 (Conv2D)             (1,8,8,144)     1,440/1,872       83,088      nl_29_nl             |                                conv2d(i)[26]          
     nl_30_nl (Nonlinearity)        (1,8,8,144)                       9,216       conv2d_30            |            -9,216(-100.0%)    
----------------------------------------------------------------------------------------------------------------------------------------------------------------
31   conv2d_31 (Conv2D)             (1,8,8,24)      3,480/3,552       221,208     nl_30_nl             |                                conv2d(i)[27]          
----------------------------------------------------------------------------------------------------------------------------------------------------------------
32   eltwise_32 (Eltwise)           (1,8,8,24)                        1,536       conv2d_28            |                                eltwise_integer(i)[28] 
                                                                                  conv2d_31            |  
----------------------------------------------------------------------------------------------------------------------------------------------------------------
33   conv2d_33 (Conv2D)             (1,8,8,144)     3,600/4,032       221,328     eltwise_32           |                                conv2d(i)[29]          
     nl_33_nl (Nonlinearity)        (1,8,8,144)                       9,216       conv2d_33            |            -9,216(-100.0%)    
----------------------------------------------------------------------------------------------------------------------------------------------------------------
34   conv2d_34 (Conv2D)             (1,8,8,144)     1,440/1,872       83,088      nl_33_nl             |                                conv2d(i)[30]          
     nl_34_nl (Nonlinearity)        (1,8,8,144)                       9,216       conv2d_34            |            -9,216(-100.0%)    
----------------------------------------------------------------------------------------------------------------------------------------------------------------
35   conv2d_35 (Conv2D)             (1,8,8,24)      3,480/3,552       221,208     nl_34_nl             |                                conv2d(i)[31]          
----------------------------------------------------------------------------------------------------------------------------------------------------------------
36   eltwise_36 (Eltwise)           (1,8,8,24)                        1,536       eltwise_32           |                                eltwise_integer(i)[32] 
                                                                                  conv2d_35            |  
----------------------------------------------------------------------------------------------------------------------------------------------------------------
37   conv2d_37 (Conv2D)             (1,8,8,144)     3,600/4,032       221,328     eltwise_36           |                                conv2d(i)[33]          
     nl_37_nl (Nonlinearity)        (1,8,8,144)                       9,216       conv2d_37            |            -9,216(-100.0%)    
----------------------------------------------------------------------------------------------------------------------------------------------------------------
38   conv2d_38 (Conv2D)             (1,8,8,144)     1,440/1,872       83,088      nl_37_nl             |                                conv2d(i)[34]          
     nl_38_nl (Nonlinearity)        (1,8,8,144)                       9,216       conv2d_38            |            -9,216(-100.0%)    
----------------------------------------------------------------------------------------------------------------------------------------------------------------
39   conv2d_39 (Conv2D)             (1,8,8,24)      3,480/3,552       221,208     nl_38_nl             |                                conv2d(i)[35]          
----------------------------------------------------------------------------------------------------------------------------------------------------------------
40   eltwise_40 (Eltwise)           (1,8,8,24)                        1,536       eltwise_36           |                                eltwise_integer(i)[36] 
                                                                                  conv2d_39            |  
----------------------------------------------------------------------------------------------------------------------------------------------------------------
41   conv2d_41 (Conv2D)             (1,8,8,144)     3,600/4,032       221,328     eltwise_40           |                                conv2d(i)[37]          
     nl_41_nl (Nonlinearity)        (1,8,8,144)                       9,216       conv2d_41            |            -9,216(-100.0%)    
----------------------------------------------------------------------------------------------------------------------------------------------------------------
42   conv2d_42 (Conv2D)             (1,8,8,144)     1,440/1,872       83,088      nl_41_nl             |                                conv2d(i)[38]          
     nl_42_nl (Nonlinearity)        (1,8,8,144)                       9,216       conv2d_42            |            -9,216(-100.0%)    
----------------------------------------------------------------------------------------------------------------------------------------------------------------
43   conv2d_43 (Conv2D)             (1,8,8,32)      4,640/4,736       294,944     nl_42_nl             |                                conv2d(i)[39]          
----------------------------------------------------------------------------------------------------------------------------------------------------------------
44   conv2d_44 (Conv2D)             (1,8,8,192)     6,336/6,912       393,408     conv2d_43            |                                conv2d(i)[40]          
     nl_44_nl (Nonlinearity)        (1,8,8,192)                       12,288      conv2d_44            |            -12,288(-100.0%)   
----------------------------------------------------------------------------------------------------------------------------------------------------------------
45   conv2d_45 (Conv2D)             (1,8,8,192)     1,920/2,496       110,784     nl_44_nl             |                                conv2d(i)[41]          
     nl_45_nl (Nonlinearity)        (1,8,8,192)                       12,288      conv2d_45            |            -12,288(-100.0%)   
----------------------------------------------------------------------------------------------------------------------------------------------------------------
46   conv2d_46 (Conv2D)             (1,8,8,32)      6,176/6,272       393,248     nl_45_nl             |                                conv2d(i)[42]          
----------------------------------------------------------------------------------------------------------------------------------------------------------------
47   eltwise_47 (Eltwise)           (1,8,8,32)                        2,048       conv2d_43            |                                eltwise_integer(i)[43] 
                                                                                  conv2d_46            |  
----------------------------------------------------------------------------------------------------------------------------------------------------------------
48   conv2d_48 (Conv2D)             (1,8,8,192)     6,336/6,912       393,408     eltwise_47           |                                conv2d(i)[44]          
     nl_48_nl (Nonlinearity)        (1,8,8,192)                       12,288      conv2d_48            |            -12,288(-100.0%)   
----------------------------------------------------------------------------------------------------------------------------------------------------------------
49   conv2d_49 (Conv2D)             (1,8,8,192)     1,920/2,496       110,784     nl_48_nl             |                                conv2d(i)[45]          
     nl_49_nl (Nonlinearity)        (1,8,8,192)                       12,288      conv2d_49            |            -12,288(-100.0%)   
----------------------------------------------------------------------------------------------------------------------------------------------------------------
50   conv2d_50 (Conv2D)             (1,8,8,32)      6,176/6,272       393,248     nl_49_nl             |                                conv2d(i)[46]          
----------------------------------------------------------------------------------------------------------------------------------------------------------------
51   eltwise_51 (Eltwise)           (1,8,8,32)                        2,048       eltwise_47           |                                eltwise_integer(i)[47] 
                                                                                  conv2d_50            |  
----------------------------------------------------------------------------------------------------------------------------------------------------------------
52   conv2d_52 (Conv2D)             (1,8,8,192)     6,336/6,912       393,408     eltwise_51           |                                conv2d(i)[48]          
     nl_52_nl (Nonlinearity)        (1,8,8,192)                       12,288      conv2d_52            |            -12,288(-100.0%)   
----------------------------------------------------------------------------------------------------------------------------------------------------------------
53   pad_53 (Pad)                   (1,9,9,192)                                   nl_52_nl             |                               
----------------------------------------------------------------------------------------------------------------------------------------------------------------
54   conv2d_54 (Conv2D)             (1,4,4,192)     1,920/2,496       27,840      pad_53               |                                conv2d(i)[49]          
     nl_54_nl (Nonlinearity)        (1,4,4,192)                       3,072       conv2d_54            |            -3,072(-100.0%)    
----------------------------------------------------------------------------------------------------------------------------------------------------------------
55   conv2d_55 (Conv2D)             (1,4,4,56)      10,808/10,976     172,088     nl_54_nl             |                                conv2d(i)[50]          
----------------------------------------------------------------------------------------------------------------------------------------------------------------
56   conv2d_56 (Conv2D)             (1,4,4,336)     19,152/20,160     301,392     conv2d_55            |                                conv2d(i)[51]          
     nl_56_nl (Nonlinearity)        (1,4,4,336)                       5,376       conv2d_56            |            -5,376(-100.0%)    
----------------------------------------------------------------------------------------------------------------------------------------------------------------
57   conv2d_57 (Conv2D)             (1,4,4,336)     3,360/4,368       48,720      nl_56_nl             |                                conv2d(i)[52]          
     nl_57_nl (Nonlinearity)        (1,4,4,336)                       5,376       conv2d_57            |            -5,376(-100.0%)    
----------------------------------------------------------------------------------------------------------------------------------------------------------------
58   conv2d_58 (Conv2D)             (1,4,4,56)      18,872/19,040     301,112     nl_57_nl             |                                conv2d(i)[53]          
----------------------------------------------------------------------------------------------------------------------------------------------------------------
59   eltwise_59 (Eltwise)           (1,4,4,56)                        896         conv2d_55            |                                eltwise_integer(i)[54] 
                                                                                  conv2d_58            |  
----------------------------------------------------------------------------------------------------------------------------------------------------------------
60   conv2d_60 (Conv2D)             (1,4,4,336)     19,152/20,160     301,392     eltwise_59           |                                conv2d(i)[55]          
     nl_60_nl (Nonlinearity)        (1,4,4,336)                       5,376       conv2d_60            |            -5,376(-100.0%)    
----------------------------------------------------------------------------------------------------------------------------------------------------------------
61   conv2d_61 (Conv2D)             (1,4,4,336)     3,360/4,368       48,720      nl_60_nl             |                                conv2d(i)[56]          
     nl_61_nl (Nonlinearity)        (1,4,4,336)                       5,376       conv2d_61            |            -5,376(-100.0%)    
----------------------------------------------------------------------------------------------------------------------------------------------------------------
62   conv2d_62 (Conv2D)             (1,4,4,56)      18,872/19,040     301,112     nl_61_nl             |                                conv2d(i)[57]          
----------------------------------------------------------------------------------------------------------------------------------------------------------------
63   eltwise_63 (Eltwise)           (1,4,4,56)                        896         eltwise_59           |                                eltwise_integer(i)[58] 
                                                                                  conv2d_62            |  
----------------------------------------------------------------------------------------------------------------------------------------------------------------
64   conv2d_64 (Conv2D)             (1,4,4,336)     19,152/20,160     301,392     eltwise_63           |                                conv2d(i)[59]          
     nl_64_nl (Nonlinearity)        (1,4,4,336)                       5,376       conv2d_64            |            -5,376(-100.0%)    
----------------------------------------------------------------------------------------------------------------------------------------------------------------
65   conv2d_65 (Conv2D)             (1,4,4,336)     3,360/4,368       48,720      nl_64_nl             |                                conv2d(i)[60]          
     nl_65_nl (Nonlinearity)        (1,4,4,336)                       5,376       conv2d_65            |            -5,376(-100.0%)    
----------------------------------------------------------------------------------------------------------------------------------------------------------------
66   conv2d_66 (Conv2D)             (1,4,4,112)     37,744/38,080     602,224     nl_65_nl             |                                conv2d(i)[61]          
----------------------------------------------------------------------------------------------------------------------------------------------------------------
67   conv2d_67 (Conv2D)             (1,4,4,1280)    144,640/148,480   2,295,040   conv2d_66            |            +20,480(+0.9%)      optimized_conv2d(i)[62]
     nl_67_nl (Nonlinearity)        (1,4,4,1280)                      20,480      conv2d_67            |            -20,480(-100.0%)   
----------------------------------------------------------------------------------------------------------------------------------------------------------------
68   pool_68 (Pool)                 (1,1,1,1280)                      20,480      nl_67_nl             |            -20,480(-100.0%)   
     reshape_68_reshape (Reshape)   (1,1,1,1280)                                  pool_68              |                               
----------------------------------------------------------------------------------------------------------------------------------------------------------------
69   dense_69 (Dense)               (1,1,1,2)       2,562/2,568       2,562       reshape_68_reshape   |            +4(+0.2%)           dense(i)/conv()[63, 64]
----------------------------------------------------------------------------------------------------------------------------------------------------------------
70   nl_70 (Nonlinearity)           (1,1,1,2)                         30          dense_69             |            +4(+13.3%)          nl()/conv(i)/o[65, 66] 
----------------------------------------------------------------------------------------------------------------------------------------------------------------
71   conversion_71 (Conversion)     (1,1,1,2)                         4           nl_70                |            -4(-100.0%)        
----------------------------------------------------------------------------------------------------------------------------------------------------------------
model/c-model: macc=19,952,548/19,095,976 -856,572(-4.3%) weights=412,776/412,776  activations=--/201,824 io=--/49,154



Generated C-graph summary
------------------------------------------------------------------------------------------------------------------------
model name            : mobv2_128x128x3
c-name                : network
c-node #              : 67
c-array #             : 262
activations size      : 201824 (1 segments)
weights size          : 412776 (1 segments)
macc                  : 19095976
inputs                : ['input_1_output']
outputs               : ['nl_70_0_conversion_output']

C-Arrays (262)
---------------------------------------------------------------------------------------------------------------------------
c_id   name (*_array)                 item/size       domain/mem-pool    c-type          fmt                       comment
---------------------------------------------------------------------------------------------------------------------------
0      input_1_output                 49152/49152     user/              uint8_t         int8/ua                   /input 
1      conversion_0_output            49153/49153     activations/pool   int8_t          int8/sa                          
2      conv2d_2_output                65536/65536     activations/pool   int8_t          int8/sa                          
3      conv2d_3_output                65536/65536     activations/pool   int8_t          int8/sa                          
4      conv2d_4_output                32768/32768     activations/pool   int8_t          int8/sa                          
5      conv2d_5_output                196608/196608   activations/pool   int8_t          int8/sa                          
6      conv2d_7_output                49152/49152     activations/pool   int8_t          int8/sa                          
7      conv2d_8_output                8192/8192       activations/pool   int8_t          int8/sa                          
8      conv2d_9_output                49152/49152     activations/pool   int8_t          int8/sa                          
9      conv2d_10_output               49152/49152     activations/pool   int8_t          int8/sa                          
10     conv2d_11_output               8192/8192       activations/pool   int8_t          int8/sa                          
11     eltwise_12_output              8192/8192       activations/pool   int8_t          int8/sa                          
12     conv2d_13_output               49152/49152     activations/pool   int8_t          int8/sa                          
13     conv2d_15_output               12288/12288     activations/pool   int8_t          int8/sa                          
14     conv2d_16_output               4096/4096       activations/pool   int8_t          int8/sa                          
15     conv2d_17_output               24576/24576     activations/pool   int8_t          int8/sa                          
16     conv2d_18_output               24576/24576     activations/pool   int8_t          int8/sa                          
17     conv2d_19_output               4096/4096       activations/pool   int8_t          int8/sa                          
18     eltwise_20_output              4096/4096       activations/pool   int8_t          int8/sa                          
19     conv2d_21_output               24576/24576     activations/pool   int8_t          int8/sa                          
20     conv2d_22_output               24576/24576     activations/pool   int8_t          int8/sa                          
21     conv2d_23_output               4096/4096       activations/pool   int8_t          int8/sa                          
22     eltwise_24_output              4096/4096       activations/pool   int8_t          int8/sa                          
23     conv2d_25_output               24576/24576     activations/pool   int8_t          int8/sa                          
24     conv2d_27_output               6144/6144       activations/pool   int8_t          int8/sa                          
25     conv2d_28_output               1536/1536       activations/pool   int8_t          int8/sa                          
26     conv2d_29_output               9216/9216       activations/pool   int8_t          int8/sa                          
27     conv2d_30_output               9216/9216       activations/pool   int8_t          int8/sa                          
28     conv2d_31_output               1536/1536       activations/pool   int8_t          int8/sa                          
29     eltwise_32_output              1536/1536       activations/pool   int8_t          int8/sa                          
30     conv2d_33_output               9216/9216       activations/pool   int8_t          int8/sa                          
31     conv2d_34_output               9216/9216       activations/pool   int8_t          int8/sa                          
32     conv2d_35_output               1536/1536       activations/pool   int8_t          int8/sa                          
33     eltwise_36_output              1536/1536       activations/pool   int8_t          int8/sa                          
34     conv2d_37_output               9216/9216       activations/pool   int8_t          int8/sa                          
35     conv2d_38_output               9216/9216       activations/pool   int8_t          int8/sa                          
36     conv2d_39_output               1536/1536       activations/pool   int8_t          int8/sa                          
37     eltwise_40_output              1536/1536       activations/pool   int8_t          int8/sa                          
38     conv2d_41_output               9216/9216       activations/pool   int8_t          int8/sa                          
39     conv2d_42_output               9216/9216       activations/pool   int8_t          int8/sa                          
40     conv2d_43_output               2048/2048       activations/pool   int8_t          int8/sa                          
41     conv2d_44_output               12288/12288     activations/pool   int8_t          int8/sa                          
42     conv2d_45_output               12288/12288     activations/pool   int8_t          int8/sa                          
43     conv2d_46_output               2048/2048       activations/pool   int8_t          int8/sa                          
44     eltwise_47_output              2048/2048       activations/pool   int8_t          int8/sa                          
45     conv2d_48_output               12288/12288     activations/pool   int8_t          int8/sa                          
46     conv2d_49_output               12288/12288     activations/pool   int8_t          int8/sa                          
47     conv2d_50_output               2048/2048       activations/pool   int8_t          int8/sa                          
48     eltwise_51_output              2048/2048       activations/pool   int8_t          int8/sa                          
49     conv2d_52_output               12288/12288     activations/pool   int8_t          int8/sa                          
50     conv2d_54_output               3072/3072       activations/pool   int8_t          int8/sa                          
51     conv2d_55_output               896/896         activations/pool   int8_t          int8/sa                          
52     conv2d_56_output               5376/5376       activations/pool   int8_t          int8/sa                          
53     conv2d_57_output               5376/5376       activations/pool   int8_t          int8/sa                          
54     conv2d_58_output               896/896         activations/pool   int8_t          int8/sa                          
55     eltwise_59_output              896/896         activations/pool   int8_t          int8/sa                          
56     conv2d_60_output               5376/5376       activations/pool   int8_t          int8/sa                          
57     conv2d_61_output               5376/5376       activations/pool   int8_t          int8/sa                          
58     conv2d_62_output               896/896         activations/pool   int8_t          int8/sa                          
59     eltwise_63_output              896/896         activations/pool   int8_t          int8/sa                          
60     conv2d_64_output               5376/5376       activations/pool   int8_t          int8/sa                          
61     conv2d_65_output               5376/5376       activations/pool   int8_t          int8/sa                          
62     conv2d_66_output               1792/1792       activations/pool   int8_t          int8/sa                          
63     conv2d_67_output               1280/1280       activations/pool   int8_t          int8/sa                          
64     dense_69_output                2/2             activations/pool   int8_t          int8/sa                          
65     dense_69_0_conversion_output   2/8             activations/pool   float           float                            
66     nl_70_output                   2/8             activations/pool   float           float                            
67     nl_70_0_conversion_output      2/2             user/              uint8_t         int8/ua                   /output
68     conv2d_2_weights               432/432         weights/           const int8_t    int8/sa/channel (16)             
69     conv2d_2_bias                  16/64           weights/           const int32_t   int32/sa/channel (16)            
70     conv2d_3_weights               144/144         weights/           const int8_t    int8/sa/channel (16)             
71     conv2d_3_bias                  16/64           weights/           const int32_t   int32/sa/channel (16)            
72     conv2d_4_weights               128/128         weights/           const int8_t    int8/sa/channel (8)              
73     conv2d_4_bias                  8/32            weights/           const int32_t   int32/sa/channel (8)             
74     conv2d_5_weights               384/384         weights/           const int8_t    int8/sa/channel (48)             
75     conv2d_5_bias                  48/192          weights/           const int32_t   int32/sa/channel (48)            
76     conv2d_7_weights               432/432         weights/           const int8_t    int8/sa/channel (48)             
77     conv2d_7_bias                  48/192          weights/           const int32_t   int32/sa/channel (48)            
78     conv2d_8_weights               384/384         weights/           const int8_t    int8/sa/channel (8)              
79     conv2d_8_bias                  8/32            weights/           const int32_t   int32/sa/channel (8)             
80     conv2d_9_weights               384/384         weights/           const int8_t    int8/sa/channel (48)             
81     conv2d_9_bias                  48/192          weights/           const int32_t   int32/sa/channel (48)            
82     conv2d_10_weights              432/432         weights/           const int8_t    int8/sa/channel (48)             
83     conv2d_10_bias                 48/192          weights/           const int32_t   int32/sa/channel (48)            
84     conv2d_11_weights              384/384         weights/           const int8_t    int8/sa/channel (8)              
85     conv2d_11_bias                 8/32            weights/           const int32_t   int32/sa/channel (8)             
86     conv2d_13_weights              384/384         weights/           const int8_t    int8/sa/channel (48)             
87     conv2d_13_bias                 48/192          weights/           const int32_t   int32/sa/channel (48)            
88     conv2d_15_weights              432/432         weights/           const int8_t    int8/sa/channel (48)             
89     conv2d_15_bias                 48/192          weights/           const int32_t   int32/sa/channel (48)            
90     conv2d_16_weights              768/768         weights/           const int8_t    int8/sa/channel (16)             
91     conv2d_16_bias                 16/64           weights/           const int32_t   int32/sa/channel (16)            
92     conv2d_17_weights              1536/1536       weights/           const int8_t    int8/sa/channel (96)             
93     conv2d_17_bias                 96/384          weights/           const int32_t   int32/sa/channel (96)            
94     conv2d_18_weights              864/864         weights/           const int8_t    int8/sa/channel (96)             
95     conv2d_18_bias                 96/384          weights/           const int32_t   int32/sa/channel (96)            
96     conv2d_19_weights              1536/1536       weights/           const int8_t    int8/sa/channel (16)             
97     conv2d_19_bias                 16/64           weights/           const int32_t   int32/sa/channel (16)            
98     conv2d_21_weights              1536/1536       weights/           const int8_t    int8/sa/channel (96)             
99     conv2d_21_bias                 96/384          weights/           const int32_t   int32/sa/channel (96)            
100    conv2d_22_weights              864/864         weights/           const int8_t    int8/sa/channel (96)             
101    conv2d_22_bias                 96/384          weights/           const int32_t   int32/sa/channel (96)            
102    conv2d_23_weights              1536/1536       weights/           const int8_t    int8/sa/channel (16)             
103    conv2d_23_bias                 16/64           weights/           const int32_t   int32/sa/channel (16)            
104    conv2d_25_weights              1536/1536       weights/           const int8_t    int8/sa/channel (96)             
105    conv2d_25_bias                 96/384          weights/           const int32_t   int32/sa/channel (96)            
106    conv2d_27_weights              864/864         weights/           const int8_t    int8/sa/channel (96)             
107    conv2d_27_bias                 96/384          weights/           const int32_t   int32/sa/channel (96)            
108    conv2d_28_weights              2304/2304       weights/           const int8_t    int8/sa/channel (24)             
109    conv2d_28_bias                 24/96           weights/           const int32_t   int32/sa/channel (24)            
110    conv2d_29_weights              3456/3456       weights/           const int8_t    int8/sa/channel (144)            
111    conv2d_29_bias                 144/576         weights/           const int32_t   int32/sa/channel (144)           
112    conv2d_30_weights              1296/1296       weights/           const int8_t    int8/sa/channel (144)            
113    conv2d_30_bias                 144/576         weights/           const int32_t   int32/sa/channel (144)           
114    conv2d_31_weights              3456/3456       weights/           const int8_t    int8/sa/channel (24)             
115    conv2d_31_bias                 24/96           weights/           const int32_t   int32/sa/channel (24)            
116    conv2d_33_weights              3456/3456       weights/           const int8_t    int8/sa/channel (144)            
117    conv2d_33_bias                 144/576         weights/           const int32_t   int32/sa/channel (144)           
118    conv2d_34_weights              1296/1296       weights/           const int8_t    int8/sa/channel (144)            
119    conv2d_34_bias                 144/576         weights/           const int32_t   int32/sa/channel (144)           
120    conv2d_35_weights              3456/3456       weights/           const int8_t    int8/sa/channel (24)             
121    conv2d_35_bias                 24/96           weights/           const int32_t   int32/sa/channel (24)            
122    conv2d_37_weights              3456/3456       weights/           const int8_t    int8/sa/channel (144)            
123    conv2d_37_bias                 144/576         weights/           const int32_t   int32/sa/channel (144)           
124    conv2d_38_weights              1296/1296       weights/           const int8_t    int8/sa/channel (144)            
125    conv2d_38_bias                 144/576         weights/           const int32_t   int32/sa/channel (144)           
126    conv2d_39_weights              3456/3456       weights/           const int8_t    int8/sa/channel (24)             
127    conv2d_39_bias                 24/96           weights/           const int32_t   int32/sa/channel (24)            
128    conv2d_41_weights              3456/3456       weights/           const int8_t    int8/sa/channel (144)            
129    conv2d_41_bias                 144/576         weights/           const int32_t   int32/sa/channel (144)           
130    conv2d_42_weights              1296/1296       weights/           const int8_t    int8/sa/channel (144)            
131    conv2d_42_bias                 144/576         weights/           const int32_t   int32/sa/channel (144)           
132    conv2d_43_weights              4608/4608       weights/           const int8_t    int8/sa/channel (32)             
133    conv2d_43_bias                 32/128          weights/           const int32_t   int32/sa/channel (32)            
134    conv2d_44_weights              6144/6144       weights/           const int8_t    int8/sa/channel (192)            
135    conv2d_44_bias                 192/768         weights/           const int32_t   int32/sa/channel (192)           
136    conv2d_45_weights              1728/1728       weights/           const int8_t    int8/sa/channel (192)            
137    conv2d_45_bias                 192/768         weights/           const int32_t   int32/sa/channel (192)           
138    conv2d_46_weights              6144/6144       weights/           const int8_t    int8/sa/channel (32)             
139    conv2d_46_bias                 32/128          weights/           const int32_t   int32/sa/channel (32)            
140    conv2d_48_weights              6144/6144       weights/           const int8_t    int8/sa/channel (192)            
141    conv2d_48_bias                 192/768         weights/           const int32_t   int32/sa/channel (192)           
142    conv2d_49_weights              1728/1728       weights/           const int8_t    int8/sa/channel (192)            
143    conv2d_49_bias                 192/768         weights/           const int32_t   int32/sa/channel (192)           
144    conv2d_50_weights              6144/6144       weights/           const int8_t    int8/sa/channel (32)             
145    conv2d_50_bias                 32/128          weights/           const int32_t   int32/sa/channel (32)            
146    conv2d_52_weights              6144/6144       weights/           const int8_t    int8/sa/channel (192)            
147    conv2d_52_bias                 192/768         weights/           const int32_t   int32/sa/channel (192)           
148    conv2d_54_weights              1728/1728       weights/           const int8_t    int8/sa/channel (192)            
149    conv2d_54_bias                 192/768         weights/           const int32_t   int32/sa/channel (192)           
150    conv2d_55_weights              10752/10752     weights/           const int8_t    int8/sa/channel (56)             
151    conv2d_55_bias                 56/224          weights/           const int32_t   int32/sa/channel (56)            
152    conv2d_56_weights              18816/18816     weights/           const int8_t    int8/sa/channel (336)            
153    conv2d_56_bias                 336/1344        weights/           const int32_t   int32/sa/channel (336)           
154    conv2d_57_weights              3024/3024       weights/           const int8_t    int8/sa/channel (336)            
155    conv2d_57_bias                 336/1344        weights/           const int32_t   int32/sa/channel (336)           
156    conv2d_58_weights              18816/18816     weights/           const int8_t    int8/sa/channel (56)             
157    conv2d_58_bias                 56/224          weights/           const int32_t   int32/sa/channel (56)            
158    conv2d_60_weights              18816/18816     weights/           const int8_t    int8/sa/channel (336)            
159    conv2d_60_bias                 336/1344        weights/           const int32_t   int32/sa/channel (336)           
160    conv2d_61_weights              3024/3024       weights/           const int8_t    int8/sa/channel (336)            
161    conv2d_61_bias                 336/1344        weights/           const int32_t   int32/sa/channel (336)           
162    conv2d_62_weights              18816/18816     weights/           const int8_t    int8/sa/channel (56)             
163    conv2d_62_bias                 56/224          weights/           const int32_t   int32/sa/channel (56)            
164    conv2d_64_weights              18816/18816     weights/           const int8_t    int8/sa/channel (336)            
165    conv2d_64_bias                 336/1344        weights/           const int32_t   int32/sa/channel (336)           
166    conv2d_65_weights              3024/3024       weights/           const int8_t    int8/sa/channel (336)            
167    conv2d_65_bias                 336/1344        weights/           const int32_t   int32/sa/channel (336)           
168    conv2d_66_weights              37632/37632     weights/           const int8_t    int8/sa/channel (112)            
169    conv2d_66_bias                 112/448         weights/           const int32_t   int32/sa/channel (112)           
170    conv2d_67_weights              143360/143360   weights/           const int8_t    int8/sa/channel (1280)           
171    conv2d_67_bias                 1280/5120       weights/           const int32_t   int32/sa/channel (1280)          
172    dense_69_weights               2560/2560       weights/           const int8_t    int8/sa                          
173    dense_69_bias                  2/8             weights/           const int32_t   int32/sa                         
174    conv2d_2_scratch0              1196/1196       activations/pool   int8_t          int/ss                           
175    conv2d_2_scratch1              65536/65536     activations/pool   int8_t          int8/sa                          
176    conv2d_3_scratch0              593/593         activations/pool   int8_t          int/ss                           
177    conv2d_3_scratch1              65536/65536     activations/pool   int8_t          int8/sa                          
178    conv2d_4_scratch0              144/144         activations/pool   int8_t          int/ss                           
179    conv2d_5_scratch0              512/512         activations/pool   int8_t          int/ss                           
180    conv2d_5_scratch1              196608/196608   activations/pool   int8_t          int8/sa                          
181    conv2d_7_scratch0              1777/1777       activations/pool   int8_t          int/ss                           
182    conv2d_7_scratch1              49152/49152     activations/pool   int8_t          int8/sa                          
183    conv2d_8_scratch0              272/272         activations/pool   int8_t          int/ss                           
184    conv2d_9_scratch0              512/512         activations/pool   int8_t          int/ss                           
185    conv2d_9_scratch1              49152/49152     activations/pool   int8_t          int8/sa                          
186    conv2d_10_scratch0             1777/1777       activations/pool   int8_t          int/ss                           
187    conv2d_10_scratch1             49152/49152     activations/pool   int8_t          int8/sa                          
188    conv2d_11_scratch0             272/272         activations/pool   int8_t          int/ss                           
189    conv2d_13_scratch0             512/512         activations/pool   int8_t          int/ss                           
190    conv2d_13_scratch1             49152/49152     activations/pool   int8_t          int8/sa                          
191    conv2d_15_scratch0             1777/1777       activations/pool   int8_t          int/ss                           
192    conv2d_15_scratch1             12288/12288     activations/pool   int8_t          int8/sa                          
193    conv2d_16_scratch0             352/352         activations/pool   int8_t          int/ss                           
194    conv2d_17_scratch0             1024/1024       activations/pool   int8_t          int/ss                           
195    conv2d_17_scratch1             24576/24576     activations/pool   int8_t          int8/sa                          
196    conv2d_18_scratch0             3553/3553       activations/pool   int8_t          int/ss                           
197    conv2d_18_scratch1             24576/24576     activations/pool   int8_t          int8/sa                          
198    conv2d_19_scratch0             544/544         activations/pool   int8_t          int/ss                           
199    conv2d_21_scratch0             1024/1024       activations/pool   int8_t          int/ss                           
200    conv2d_21_scratch1             24576/24576     activations/pool   int8_t          int8/sa                          
201    conv2d_22_scratch0             3553/3553       activations/pool   int8_t          int/ss                           
202    conv2d_22_scratch1             24576/24576     activations/pool   int8_t          int8/sa                          
203    conv2d_23_scratch0             544/544         activations/pool   int8_t          int/ss                           
204    conv2d_25_scratch0             1024/1024       activations/pool   int8_t          int/ss                           
205    conv2d_25_scratch1             24576/24576     activations/pool   int8_t          int8/sa                          
206    conv2d_27_scratch0             3553/3553       activations/pool   int8_t          int/ss                           
207    conv2d_27_scratch1             6144/6144       activations/pool   int8_t          int8/sa                          
208    conv2d_28_scratch0             624/624         activations/pool   int8_t          int/ss                           
209    conv2d_29_scratch0             1536/1536       activations/pool   int8_t          int/ss                           
210    conv2d_29_scratch1             9216/9216       activations/pool   int8_t          int8/sa                          
211    conv2d_30_scratch0             5329/5329       activations/pool   int8_t          int/ss                           
212    conv2d_30_scratch1             9216/9216       activations/pool   int8_t          int8/sa                          
213    conv2d_31_scratch0             816/816         activations/pool   int8_t          int/ss                           
214    conv2d_33_scratch0             1536/1536       activations/pool   int8_t          int/ss                           
215    conv2d_33_scratch1             9216/9216       activations/pool   int8_t          int8/sa                          
216    conv2d_34_scratch0             5329/5329       activations/pool   int8_t          int/ss                           
217    conv2d_34_scratch1             9216/9216       activations/pool   int8_t          int8/sa                          
218    conv2d_35_scratch0             816/816         activations/pool   int8_t          int/ss                           
219    conv2d_37_scratch0             1536/1536       activations/pool   int8_t          int/ss                           
220    conv2d_37_scratch1             9216/9216       activations/pool   int8_t          int8/sa                          
221    conv2d_38_scratch0             5329/5329       activations/pool   int8_t          int/ss                           
222    conv2d_38_scratch1             9216/9216       activations/pool   int8_t          int8/sa                          
223    conv2d_39_scratch0             816/816         activations/pool   int8_t          int/ss                           
224    conv2d_41_scratch0             1536/1536       activations/pool   int8_t          int/ss                           
225    conv2d_41_scratch1             9216/9216       activations/pool   int8_t          int8/sa                          
226    conv2d_42_scratch0             5329/5329       activations/pool   int8_t          int/ss                           
227    conv2d_42_scratch1             9216/9216       activations/pool   int8_t          int8/sa                          
228    conv2d_43_scratch0             896/896         activations/pool   int8_t          int/ss                           
229    conv2d_44_scratch0             2048/2048       activations/pool   int8_t          int/ss                           
230    conv2d_44_scratch1             12288/12288     activations/pool   int8_t          int8/sa                          
231    conv2d_45_scratch0             7105/7105       activations/pool   int8_t          int/ss                           
232    conv2d_45_scratch1             12288/12288     activations/pool   int8_t          int8/sa                          
233    conv2d_46_scratch0             1088/1088       activations/pool   int8_t          int/ss                           
234    conv2d_48_scratch0             2048/2048       activations/pool   int8_t          int/ss                           
235    conv2d_48_scratch1             12288/12288     activations/pool   int8_t          int8/sa                          
236    conv2d_49_scratch0             7105/7105       activations/pool   int8_t          int/ss                           
237    conv2d_49_scratch1             12288/12288     activations/pool   int8_t          int8/sa                          
238    conv2d_50_scratch0             1088/1088       activations/pool   int8_t          int/ss                           
239    conv2d_52_scratch0             2048/2048       activations/pool   int8_t          int/ss                           
240    conv2d_52_scratch1             12288/12288     activations/pool   int8_t          int8/sa                          
241    conv2d_54_scratch0             7105/7105       activations/pool   int8_t          int/ss                           
242    conv2d_54_scratch1             3072/3072       activations/pool   int8_t          int8/sa                          
243    conv2d_55_scratch0             1328/1328       activations/pool   int8_t          int/ss                           
244    conv2d_56_scratch0             3584/3584       activations/pool   int8_t          int/ss                           
245    conv2d_56_scratch1             5376/5376       activations/pool   int8_t          int8/sa                          
246    conv2d_57_scratch0             12433/12433     activations/pool   int8_t          int/ss                           
247    conv2d_57_scratch1             5376/5376       activations/pool   int8_t          int8/sa                          
248    conv2d_58_scratch0             1904/1904       activations/pool   int8_t          int/ss                           
249    conv2d_60_scratch0             3584/3584       activations/pool   int8_t          int/ss                           
250    conv2d_60_scratch1             5376/5376       activations/pool   int8_t          int8/sa                          
251    conv2d_61_scratch0             12433/12433     activations/pool   int8_t          int/ss                           
252    conv2d_61_scratch1             5376/5376       activations/pool   int8_t          int8/sa                          
253    conv2d_62_scratch0             1904/1904       activations/pool   int8_t          int/ss                           
254    conv2d_64_scratch0             3584/3584       activations/pool   int8_t          int/ss                           
255    conv2d_64_scratch1             5376/5376       activations/pool   int8_t          int8/sa                          
256    conv2d_65_scratch0             12433/12433     activations/pool   int8_t          int/ss                           
257    conv2d_65_scratch1             5376/5376       activations/pool   int8_t          int8/sa                          
258    conv2d_66_scratch0             2464/2464       activations/pool   int8_t          int/ss                           
259    conv2d_67_scratch0             13248/13248     activations/pool   int8_t          int/ss                           
260    conv2d_67_scratch1             20480/20480     activations/pool   int8_t          int8/sa                          
261    conv2d_67_scratch2             20480/20480     activations/pool   int8_t          int8/sa                          
---------------------------------------------------------------------------------------------------------------------------

C-Layers (67)
---------------------------------------------------------------------------------------------------------------------------------
c_id   name (*_layer)          id   layer_type         macc      rom      tensors                           shape (array id)    
---------------------------------------------------------------------------------------------------------------------------------
0      conversion_0            0    conv               98304     0        I: input_1_output                 (1,128,128,3) (0)   
                                                                          O: conversion_0_output            (1,128,128,3) (1)   
---------------------------------------------------------------------------------------------------------------------------------
1      conv2d_2                2    conv2d             1769488   496      I: conversion_0_output            (1,128,128,3) (1)   
                                                                          S: conv2d_2_scratch0                                  
                                                                          S: conv2d_2_scratch1                                  
                                                                          W: conv2d_2_weights               (3,16,3,3) (68)     
                                                                          W: conv2d_2_bias                  (1,1,1,16) (69)     
                                                                          O: conv2d_2_output                (1,64,64,16) (2)    
---------------------------------------------------------------------------------------------------------------------------------
2      conv2d_3                3    conv2d             589840    208      I: conv2d_2_output                (1,64,64,16) (2)    
                                                                          S: conv2d_3_scratch0                                  
                                                                          S: conv2d_3_scratch1                                  
                                                                          W: conv2d_3_weights               (16,1,3,3) (70)     
                                                                          W: conv2d_3_bias                  (1,1,1,16) (71)     
                                                                          O: conv2d_3_output                (1,64,64,16) (3)    
---------------------------------------------------------------------------------------------------------------------------------
3      conv2d_4                4    conv2d             524296    160      I: conv2d_3_output                (1,64,64,16) (3)    
                                                                          S: conv2d_4_scratch0                                  
                                                                          W: conv2d_4_weights               (16,8,1,1) (72)     
                                                                          W: conv2d_4_bias                  (1,1,1,8) (73)      
                                                                          O: conv2d_4_output                (1,64,64,8) (4)     
---------------------------------------------------------------------------------------------------------------------------------
4      conv2d_5                5    conv2d             1572912   576      I: conv2d_4_output                (1,64,64,8) (4)     
                                                                          S: conv2d_5_scratch0                                  
                                                                          S: conv2d_5_scratch1                                  
                                                                          W: conv2d_5_weights               (8,48,1,1) (74)     
                                                                          W: conv2d_5_bias                  (1,1,1,48) (75)     
                                                                          O: conv2d_5_output                (1,64,64,48) (5)    
---------------------------------------------------------------------------------------------------------------------------------
5      conv2d_7                7    conv2d             442416    624      I: conv2d_5_output                (1,64,64,48) (5)    
                                                                          S: conv2d_7_scratch0                                  
                                                                          S: conv2d_7_scratch1                                  
                                                                          W: conv2d_7_weights               (48,1,3,3) (76)     
                                                                          W: conv2d_7_bias                  (1,1,1,48) (77)     
                                                                          O: conv2d_7_output                (1,32,32,48) (6)    
---------------------------------------------------------------------------------------------------------------------------------
6      conv2d_8                8    conv2d             393224    416      I: conv2d_7_output                (1,32,32,48) (6)    
                                                                          S: conv2d_8_scratch0                                  
                                                                          W: conv2d_8_weights               (48,8,1,1) (78)     
                                                                          W: conv2d_8_bias                  (1,1,1,8) (79)      
                                                                          O: conv2d_8_output                (1,32,32,8) (7)     
---------------------------------------------------------------------------------------------------------------------------------
7      conv2d_9                9    conv2d             393264    576      I: conv2d_8_output                (1,32,32,8) (7)     
                                                                          S: conv2d_9_scratch0                                  
                                                                          S: conv2d_9_scratch1                                  
                                                                          W: conv2d_9_weights               (8,48,1,1) (80)     
                                                                          W: conv2d_9_bias                  (1,1,1,48) (81)     
                                                                          O: conv2d_9_output                (1,32,32,48) (8)    
---------------------------------------------------------------------------------------------------------------------------------
8      conv2d_10               10   conv2d             442416    624      I: conv2d_9_output                (1,32,32,48) (8)    
                                                                          S: conv2d_10_scratch0                                 
                                                                          S: conv2d_10_scratch1                                 
                                                                          W: conv2d_10_weights              (48,1,3,3) (82)     
                                                                          W: conv2d_10_bias                 (1,1,1,48) (83)     
                                                                          O: conv2d_10_output               (1,32,32,48) (9)    
---------------------------------------------------------------------------------------------------------------------------------
9      conv2d_11               11   conv2d             393224    416      I: conv2d_10_output               (1,32,32,48) (9)    
                                                                          S: conv2d_11_scratch0                                 
                                                                          W: conv2d_11_weights              (48,8,1,1) (84)     
                                                                          W: conv2d_11_bias                 (1,1,1,8) (85)      
                                                                          O: conv2d_11_output               (1,32,32,8) (10)    
---------------------------------------------------------------------------------------------------------------------------------
10     eltwise_12              12   eltwise_integer    8192      0        I: conv2d_8_output                (1,32,32,8) (7)     
                                                                          I: conv2d_11_output               (1,32,32,8) (10)    
                                                                          O: eltwise_12_output              (1,32,32,8) (11)    
---------------------------------------------------------------------------------------------------------------------------------
11     conv2d_13               13   conv2d             393264    576      I: eltwise_12_output              (1,32,32,8) (11)    
                                                                          S: conv2d_13_scratch0                                 
                                                                          S: conv2d_13_scratch1                                 
                                                                          W: conv2d_13_weights              (8,48,1,1) (86)     
                                                                          W: conv2d_13_bias                 (1,1,1,48) (87)     
                                                                          O: conv2d_13_output               (1,32,32,48) (12)   
---------------------------------------------------------------------------------------------------------------------------------
12     conv2d_15               15   conv2d             110640    624      I: conv2d_13_output               (1,32,32,48) (12)   
                                                                          S: conv2d_15_scratch0                                 
                                                                          S: conv2d_15_scratch1                                 
                                                                          W: conv2d_15_weights              (48,1,3,3) (88)     
                                                                          W: conv2d_15_bias                 (1,1,1,48) (89)     
                                                                          O: conv2d_15_output               (1,16,16,48) (13)   
---------------------------------------------------------------------------------------------------------------------------------
13     conv2d_16               16   conv2d             196624    832      I: conv2d_15_output               (1,16,16,48) (13)   
                                                                          S: conv2d_16_scratch0                                 
                                                                          W: conv2d_16_weights              (48,16,1,1) (90)    
                                                                          W: conv2d_16_bias                 (1,1,1,16) (91)     
                                                                          O: conv2d_16_output               (1,16,16,16) (14)   
---------------------------------------------------------------------------------------------------------------------------------
14     conv2d_17               17   conv2d             393312    1920     I: conv2d_16_output               (1,16,16,16) (14)   
                                                                          S: conv2d_17_scratch0                                 
                                                                          S: conv2d_17_scratch1                                 
                                                                          W: conv2d_17_weights              (16,96,1,1) (92)    
                                                                          W: conv2d_17_bias                 (1,1,1,96) (93)     
                                                                          O: conv2d_17_output               (1,16,16,96) (15)   
---------------------------------------------------------------------------------------------------------------------------------
15     conv2d_18               18   conv2d             221280    1248     I: conv2d_17_output               (1,16,16,96) (15)   
                                                                          S: conv2d_18_scratch0                                 
                                                                          S: conv2d_18_scratch1                                 
                                                                          W: conv2d_18_weights              (96,1,3,3) (94)     
                                                                          W: conv2d_18_bias                 (1,1,1,96) (95)     
                                                                          O: conv2d_18_output               (1,16,16,96) (16)   
---------------------------------------------------------------------------------------------------------------------------------
16     conv2d_19               19   conv2d             393232    1600     I: conv2d_18_output               (1,16,16,96) (16)   
                                                                          S: conv2d_19_scratch0                                 
                                                                          W: conv2d_19_weights              (96,16,1,1) (96)    
                                                                          W: conv2d_19_bias                 (1,1,1,16) (97)     
                                                                          O: conv2d_19_output               (1,16,16,16) (17)   
---------------------------------------------------------------------------------------------------------------------------------
17     eltwise_20              20   eltwise_integer    4096      0        I: conv2d_16_output               (1,16,16,16) (14)   
                                                                          I: conv2d_19_output               (1,16,16,16) (17)   
                                                                          O: eltwise_20_output              (1,16,16,16) (18)   
---------------------------------------------------------------------------------------------------------------------------------
18     conv2d_21               21   conv2d             393312    1920     I: eltwise_20_output              (1,16,16,16) (18)   
                                                                          S: conv2d_21_scratch0                                 
                                                                          S: conv2d_21_scratch1                                 
                                                                          W: conv2d_21_weights              (16,96,1,1) (98)    
                                                                          W: conv2d_21_bias                 (1,1,1,96) (99)     
                                                                          O: conv2d_21_output               (1,16,16,96) (19)   
---------------------------------------------------------------------------------------------------------------------------------
19     conv2d_22               22   conv2d             221280    1248     I: conv2d_21_output               (1,16,16,96) (19)   
                                                                          S: conv2d_22_scratch0                                 
                                                                          S: conv2d_22_scratch1                                 
                                                                          W: conv2d_22_weights              (96,1,3,3) (100)    
                                                                          W: conv2d_22_bias                 (1,1,1,96) (101)    
                                                                          O: conv2d_22_output               (1,16,16,96) (20)   
---------------------------------------------------------------------------------------------------------------------------------
20     conv2d_23               23   conv2d             393232    1600     I: conv2d_22_output               (1,16,16,96) (20)   
                                                                          S: conv2d_23_scratch0                                 
                                                                          W: conv2d_23_weights              (96,16,1,1) (102)   
                                                                          W: conv2d_23_bias                 (1,1,1,16) (103)    
                                                                          O: conv2d_23_output               (1,16,16,16) (21)   
---------------------------------------------------------------------------------------------------------------------------------
21     eltwise_24              24   eltwise_integer    4096      0        I: eltwise_20_output              (1,16,16,16) (18)   
                                                                          I: conv2d_23_output               (1,16,16,16) (21)   
                                                                          O: eltwise_24_output              (1,16,16,16) (22)   
---------------------------------------------------------------------------------------------------------------------------------
22     conv2d_25               25   conv2d             393312    1920     I: eltwise_24_output              (1,16,16,16) (22)   
                                                                          S: conv2d_25_scratch0                                 
                                                                          S: conv2d_25_scratch1                                 
                                                                          W: conv2d_25_weights              (16,96,1,1) (104)   
                                                                          W: conv2d_25_bias                 (1,1,1,96) (105)    
                                                                          O: conv2d_25_output               (1,16,16,96) (23)   
---------------------------------------------------------------------------------------------------------------------------------
23     conv2d_27               27   conv2d             55392     1248     I: conv2d_25_output               (1,16,16,96) (23)   
                                                                          S: conv2d_27_scratch0                                 
                                                                          S: conv2d_27_scratch1                                 
                                                                          W: conv2d_27_weights              (96,1,3,3) (106)    
                                                                          W: conv2d_27_bias                 (1,1,1,96) (107)    
                                                                          O: conv2d_27_output               (1,8,8,96) (24)     
---------------------------------------------------------------------------------------------------------------------------------
24     conv2d_28               28   conv2d             147480    2400     I: conv2d_27_output               (1,8,8,96) (24)     
                                                                          S: conv2d_28_scratch0                                 
                                                                          W: conv2d_28_weights              (96,24,1,1) (108)   
                                                                          W: conv2d_28_bias                 (1,1,1,24) (109)    
                                                                          O: conv2d_28_output               (1,8,8,24) (25)     
---------------------------------------------------------------------------------------------------------------------------------
25     conv2d_29               29   conv2d             221328    4032     I: conv2d_28_output               (1,8,8,24) (25)     
                                                                          S: conv2d_29_scratch0                                 
                                                                          S: conv2d_29_scratch1                                 
                                                                          W: conv2d_29_weights              (24,144,1,1) (110)  
                                                                          W: conv2d_29_bias                 (1,1,1,144) (111)   
                                                                          O: conv2d_29_output               (1,8,8,144) (26)    
---------------------------------------------------------------------------------------------------------------------------------
26     conv2d_30               30   conv2d             83088     1872     I: conv2d_29_output               (1,8,8,144) (26)    
                                                                          S: conv2d_30_scratch0                                 
                                                                          S: conv2d_30_scratch1                                 
                                                                          W: conv2d_30_weights              (144,1,3,3) (112)   
                                                                          W: conv2d_30_bias                 (1,1,1,144) (113)   
                                                                          O: conv2d_30_output               (1,8,8,144) (27)    
---------------------------------------------------------------------------------------------------------------------------------
27     conv2d_31               31   conv2d             221208    3552     I: conv2d_30_output               (1,8,8,144) (27)    
                                                                          S: conv2d_31_scratch0                                 
                                                                          W: conv2d_31_weights              (144,24,1,1) (114)  
                                                                          W: conv2d_31_bias                 (1,1,1,24) (115)    
                                                                          O: conv2d_31_output               (1,8,8,24) (28)     
---------------------------------------------------------------------------------------------------------------------------------
28     eltwise_32              32   eltwise_integer    1536      0        I: conv2d_28_output               (1,8,8,24) (25)     
                                                                          I: conv2d_31_output               (1,8,8,24) (28)     
                                                                          O: eltwise_32_output              (1,8,8,24) (29)     
---------------------------------------------------------------------------------------------------------------------------------
29     conv2d_33               33   conv2d             221328    4032     I: eltwise_32_output              (1,8,8,24) (29)     
                                                                          S: conv2d_33_scratch0                                 
                                                                          S: conv2d_33_scratch1                                 
                                                                          W: conv2d_33_weights              (24,144,1,1) (116)  
                                                                          W: conv2d_33_bias                 (1,1,1,144) (117)   
                                                                          O: conv2d_33_output               (1,8,8,144) (30)    
---------------------------------------------------------------------------------------------------------------------------------
30     conv2d_34               34   conv2d             83088     1872     I: conv2d_33_output               (1,8,8,144) (30)    
                                                                          S: conv2d_34_scratch0                                 
                                                                          S: conv2d_34_scratch1                                 
                                                                          W: conv2d_34_weights              (144,1,3,3) (118)   
                                                                          W: conv2d_34_bias                 (1,1,1,144) (119)   
                                                                          O: conv2d_34_output               (1,8,8,144) (31)    
---------------------------------------------------------------------------------------------------------------------------------
31     conv2d_35               35   conv2d             221208    3552     I: conv2d_34_output               (1,8,8,144) (31)    
                                                                          S: conv2d_35_scratch0                                 
                                                                          W: conv2d_35_weights              (144,24,1,1) (120)  
                                                                          W: conv2d_35_bias                 (1,1,1,24) (121)    
                                                                          O: conv2d_35_output               (1,8,8,24) (32)     
---------------------------------------------------------------------------------------------------------------------------------
32     eltwise_36              36   eltwise_integer    1536      0        I: eltwise_32_output              (1,8,8,24) (29)     
                                                                          I: conv2d_35_output               (1,8,8,24) (32)     
                                                                          O: eltwise_36_output              (1,8,8,24) (33)     
---------------------------------------------------------------------------------------------------------------------------------
33     conv2d_37               37   conv2d             221328    4032     I: eltwise_36_output              (1,8,8,24) (33)     
                                                                          S: conv2d_37_scratch0                                 
                                                                          S: conv2d_37_scratch1                                 
                                                                          W: conv2d_37_weights              (24,144,1,1) (122)  
                                                                          W: conv2d_37_bias                 (1,1,1,144) (123)   
                                                                          O: conv2d_37_output               (1,8,8,144) (34)    
---------------------------------------------------------------------------------------------------------------------------------
34     conv2d_38               38   conv2d             83088     1872     I: conv2d_37_output               (1,8,8,144) (34)    
                                                                          S: conv2d_38_scratch0                                 
                                                                          S: conv2d_38_scratch1                                 
                                                                          W: conv2d_38_weights              (144,1,3,3) (124)   
                                                                          W: conv2d_38_bias                 (1,1,1,144) (125)   
                                                                          O: conv2d_38_output               (1,8,8,144) (35)    
---------------------------------------------------------------------------------------------------------------------------------
35     conv2d_39               39   conv2d             221208    3552     I: conv2d_38_output               (1,8,8,144) (35)    
                                                                          S: conv2d_39_scratch0                                 
                                                                          W: conv2d_39_weights              (144,24,1,1) (126)  
                                                                          W: conv2d_39_bias                 (1,1,1,24) (127)    
                                                                          O: conv2d_39_output               (1,8,8,24) (36)     
---------------------------------------------------------------------------------------------------------------------------------
36     eltwise_40              40   eltwise_integer    1536      0        I: eltwise_36_output              (1,8,8,24) (33)     
                                                                          I: conv2d_39_output               (1,8,8,24) (36)     
                                                                          O: eltwise_40_output              (1,8,8,24) (37)     
---------------------------------------------------------------------------------------------------------------------------------
37     conv2d_41               41   conv2d             221328    4032     I: eltwise_40_output              (1,8,8,24) (37)     
                                                                          S: conv2d_41_scratch0                                 
                                                                          S: conv2d_41_scratch1                                 
                                                                          W: conv2d_41_weights              (24,144,1,1) (128)  
                                                                          W: conv2d_41_bias                 (1,1,1,144) (129)   
                                                                          O: conv2d_41_output               (1,8,8,144) (38)    
---------------------------------------------------------------------------------------------------------------------------------
38     conv2d_42               42   conv2d             83088     1872     I: conv2d_41_output               (1,8,8,144) (38)    
                                                                          S: conv2d_42_scratch0                                 
                                                                          S: conv2d_42_scratch1                                 
                                                                          W: conv2d_42_weights              (144,1,3,3) (130)   
                                                                          W: conv2d_42_bias                 (1,1,1,144) (131)   
                                                                          O: conv2d_42_output               (1,8,8,144) (39)    
---------------------------------------------------------------------------------------------------------------------------------
39     conv2d_43               43   conv2d             294944    4736     I: conv2d_42_output               (1,8,8,144) (39)    
                                                                          S: conv2d_43_scratch0                                 
                                                                          W: conv2d_43_weights              (144,32,1,1) (132)  
                                                                          W: conv2d_43_bias                 (1,1,1,32) (133)    
                                                                          O: conv2d_43_output               (1,8,8,32) (40)     
---------------------------------------------------------------------------------------------------------------------------------
40     conv2d_44               44   conv2d             393408    6912     I: conv2d_43_output               (1,8,8,32) (40)     
                                                                          S: conv2d_44_scratch0                                 
                                                                          S: conv2d_44_scratch1                                 
                                                                          W: conv2d_44_weights              (32,192,1,1) (134)  
                                                                          W: conv2d_44_bias                 (1,1,1,192) (135)   
                                                                          O: conv2d_44_output               (1,8,8,192) (41)    
---------------------------------------------------------------------------------------------------------------------------------
41     conv2d_45               45   conv2d             110784    2496     I: conv2d_44_output               (1,8,8,192) (41)    
                                                                          S: conv2d_45_scratch0                                 
                                                                          S: conv2d_45_scratch1                                 
                                                                          W: conv2d_45_weights              (192,1,3,3) (136)   
                                                                          W: conv2d_45_bias                 (1,1,1,192) (137)   
                                                                          O: conv2d_45_output               (1,8,8,192) (42)    
---------------------------------------------------------------------------------------------------------------------------------
42     conv2d_46               46   conv2d             393248    6272     I: conv2d_45_output               (1,8,8,192) (42)    
                                                                          S: conv2d_46_scratch0                                 
                                                                          W: conv2d_46_weights              (192,32,1,1) (138)  
                                                                          W: conv2d_46_bias                 (1,1,1,32) (139)    
                                                                          O: conv2d_46_output               (1,8,8,32) (43)     
---------------------------------------------------------------------------------------------------------------------------------
43     eltwise_47              47   eltwise_integer    2048      0        I: conv2d_43_output               (1,8,8,32) (40)     
                                                                          I: conv2d_46_output               (1,8,8,32) (43)     
                                                                          O: eltwise_47_output              (1,8,8,32) (44)     
---------------------------------------------------------------------------------------------------------------------------------
44     conv2d_48               48   conv2d             393408    6912     I: eltwise_47_output              (1,8,8,32) (44)     
                                                                          S: conv2d_48_scratch0                                 
                                                                          S: conv2d_48_scratch1                                 
                                                                          W: conv2d_48_weights              (32,192,1,1) (140)  
                                                                          W: conv2d_48_bias                 (1,1,1,192) (141)   
                                                                          O: conv2d_48_output               (1,8,8,192) (45)    
---------------------------------------------------------------------------------------------------------------------------------
45     conv2d_49               49   conv2d             110784    2496     I: conv2d_48_output               (1,8,8,192) (45)    
                                                                          S: conv2d_49_scratch0                                 
                                                                          S: conv2d_49_scratch1                                 
                                                                          W: conv2d_49_weights              (192,1,3,3) (142)   
                                                                          W: conv2d_49_bias                 (1,1,1,192) (143)   
                                                                          O: conv2d_49_output               (1,8,8,192) (46)    
---------------------------------------------------------------------------------------------------------------------------------
46     conv2d_50               50   conv2d             393248    6272     I: conv2d_49_output               (1,8,8,192) (46)    
                                                                          S: conv2d_50_scratch0                                 
                                                                          W: conv2d_50_weights              (192,32,1,1) (144)  
                                                                          W: conv2d_50_bias                 (1,1,1,32) (145)    
                                                                          O: conv2d_50_output               (1,8,8,32) (47)     
---------------------------------------------------------------------------------------------------------------------------------
47     eltwise_51              51   eltwise_integer    2048      0        I: eltwise_47_output              (1,8,8,32) (44)     
                                                                          I: conv2d_50_output               (1,8,8,32) (47)     
                                                                          O: eltwise_51_output              (1,8,8,32) (48)     
---------------------------------------------------------------------------------------------------------------------------------
48     conv2d_52               52   conv2d             393408    6912     I: eltwise_51_output              (1,8,8,32) (48)     
                                                                          S: conv2d_52_scratch0                                 
                                                                          S: conv2d_52_scratch1                                 
                                                                          W: conv2d_52_weights              (32,192,1,1) (146)  
                                                                          W: conv2d_52_bias                 (1,1,1,192) (147)   
                                                                          O: conv2d_52_output               (1,8,8,192) (49)    
---------------------------------------------------------------------------------------------------------------------------------
49     conv2d_54               54   conv2d             27840     2496     I: conv2d_52_output               (1,8,8,192) (49)    
                                                                          S: conv2d_54_scratch0                                 
                                                                          S: conv2d_54_scratch1                                 
                                                                          W: conv2d_54_weights              (192,1,3,3) (148)   
                                                                          W: conv2d_54_bias                 (1,1,1,192) (149)   
                                                                          O: conv2d_54_output               (1,4,4,192) (50)    
---------------------------------------------------------------------------------------------------------------------------------
50     conv2d_55               55   conv2d             172088    10976    I: conv2d_54_output               (1,4,4,192) (50)    
                                                                          S: conv2d_55_scratch0                                 
                                                                          W: conv2d_55_weights              (192,56,1,1) (150)  
                                                                          W: conv2d_55_bias                 (1,1,1,56) (151)    
                                                                          O: conv2d_55_output               (1,4,4,56) (51)     
---------------------------------------------------------------------------------------------------------------------------------
51     conv2d_56               56   conv2d             301392    20160    I: conv2d_55_output               (1,4,4,56) (51)     
                                                                          S: conv2d_56_scratch0                                 
                                                                          S: conv2d_56_scratch1                                 
                                                                          W: conv2d_56_weights              (56,336,1,1) (152)  
                                                                          W: conv2d_56_bias                 (1,1,1,336) (153)   
                                                                          O: conv2d_56_output               (1,4,4,336) (52)    
---------------------------------------------------------------------------------------------------------------------------------
52     conv2d_57               57   conv2d             48720     4368     I: conv2d_56_output               (1,4,4,336) (52)    
                                                                          S: conv2d_57_scratch0                                 
                                                                          S: conv2d_57_scratch1                                 
                                                                          W: conv2d_57_weights              (336,1,3,3) (154)   
                                                                          W: conv2d_57_bias                 (1,1,1,336) (155)   
                                                                          O: conv2d_57_output               (1,4,4,336) (53)    
---------------------------------------------------------------------------------------------------------------------------------
53     conv2d_58               58   conv2d             301112    19040    I: conv2d_57_output               (1,4,4,336) (53)    
                                                                          S: conv2d_58_scratch0                                 
                                                                          W: conv2d_58_weights              (336,56,1,1) (156)  
                                                                          W: conv2d_58_bias                 (1,1,1,56) (157)    
                                                                          O: conv2d_58_output               (1,4,4,56) (54)     
---------------------------------------------------------------------------------------------------------------------------------
54     eltwise_59              59   eltwise_integer    896       0        I: conv2d_55_output               (1,4,4,56) (51)     
                                                                          I: conv2d_58_output               (1,4,4,56) (54)     
                                                                          O: eltwise_59_output              (1,4,4,56) (55)     
---------------------------------------------------------------------------------------------------------------------------------
55     conv2d_60               60   conv2d             301392    20160    I: eltwise_59_output              (1,4,4,56) (55)     
                                                                          S: conv2d_60_scratch0                                 
                                                                          S: conv2d_60_scratch1                                 
                                                                          W: conv2d_60_weights              (56,336,1,1) (158)  
                                                                          W: conv2d_60_bias                 (1,1,1,336) (159)   
                                                                          O: conv2d_60_output               (1,4,4,336) (56)    
---------------------------------------------------------------------------------------------------------------------------------
56     conv2d_61               61   conv2d             48720     4368     I: conv2d_60_output               (1,4,4,336) (56)    
                                                                          S: conv2d_61_scratch0                                 
                                                                          S: conv2d_61_scratch1                                 
                                                                          W: conv2d_61_weights              (336,1,3,3) (160)   
                                                                          W: conv2d_61_bias                 (1,1,1,336) (161)   
                                                                          O: conv2d_61_output               (1,4,4,336) (57)    
---------------------------------------------------------------------------------------------------------------------------------
57     conv2d_62               62   conv2d             301112    19040    I: conv2d_61_output               (1,4,4,336) (57)    
                                                                          S: conv2d_62_scratch0                                 
                                                                          W: conv2d_62_weights              (336,56,1,1) (162)  
                                                                          W: conv2d_62_bias                 (1,1,1,56) (163)    
                                                                          O: conv2d_62_output               (1,4,4,56) (58)     
---------------------------------------------------------------------------------------------------------------------------------
58     eltwise_63              63   eltwise_integer    896       0        I: eltwise_59_output              (1,4,4,56) (55)     
                                                                          I: conv2d_62_output               (1,4,4,56) (58)     
                                                                          O: eltwise_63_output              (1,4,4,56) (59)     
---------------------------------------------------------------------------------------------------------------------------------
59     conv2d_64               64   conv2d             301392    20160    I: eltwise_63_output              (1,4,4,56) (59)     
                                                                          S: conv2d_64_scratch0                                 
                                                                          S: conv2d_64_scratch1                                 
                                                                          W: conv2d_64_weights              (56,336,1,1) (164)  
                                                                          W: conv2d_64_bias                 (1,1,1,336) (165)   
                                                                          O: conv2d_64_output               (1,4,4,336) (60)    
---------------------------------------------------------------------------------------------------------------------------------
60     conv2d_65               65   conv2d             48720     4368     I: conv2d_64_output               (1,4,4,336) (60)    
                                                                          S: conv2d_65_scratch0                                 
                                                                          S: conv2d_65_scratch1                                 
                                                                          W: conv2d_65_weights              (336,1,3,3) (166)   
                                                                          W: conv2d_65_bias                 (1,1,1,336) (167)   
                                                                          O: conv2d_65_output               (1,4,4,336) (61)    
---------------------------------------------------------------------------------------------------------------------------------
61     conv2d_66               66   conv2d             602224    38080    I: conv2d_65_output               (1,4,4,336) (61)    
                                                                          S: conv2d_66_scratch0                                 
                                                                          W: conv2d_66_weights              (336,112,1,1) (168) 
                                                                          W: conv2d_66_bias                 (1,1,1,112) (169)   
                                                                          O: conv2d_66_output               (1,4,4,112) (62)    
---------------------------------------------------------------------------------------------------------------------------------
62     conv2d_67               68   optimized_conv2d   2315520   148480   I: conv2d_66_output               (1,4,4,112) (62)    
                                                                          S: conv2d_67_scratch0                                 
                                                                          S: conv2d_67_scratch1                                 
                                                                          S: conv2d_67_scratch2                                 
                                                                          W: conv2d_67_weights              (112,1280,1,1) (170)
                                                                          W: conv2d_67_bias                 (1,1,1,1280) (171)  
                                                                          O: conv2d_67_output               (1,1,1,1280) (63)   
---------------------------------------------------------------------------------------------------------------------------------
63     dense_69                69   dense              2562      2568     I: conv2d_67_output               (1,1,1,1280) (63)   
                                                                          W: dense_69_weights               (1280,1,1,2) (172)  
                                                                          W: dense_69_bias                  (1,1,1,2) (173)     
                                                                          O: dense_69_output                (1,1,1,2) (64)      
---------------------------------------------------------------------------------------------------------------------------------
64     dense_69_0_conversion   69   conv               4         0        I: dense_69_output                (1,1,1,2) (64)      
                                                                          O: dense_69_0_conversion_output   (1,1,1,2) (65)      
---------------------------------------------------------------------------------------------------------------------------------
65     nl_70                   70   nl                 30        0        I: dense_69_0_conversion_output   (1,1,1,2) (65)      
                                                                          O: nl_70_output                   (1,1,1,2) (66)      
---------------------------------------------------------------------------------------------------------------------------------
66     nl_70_0_conversion      70   conv               4         0        I: nl_70_output                   (1,1,1,2) (66)      
                                                                          O: nl_70_0_conversion_output      (1,1,1,2) (67)      
---------------------------------------------------------------------------------------------------------------------------------



Complexity report per layer - macc=19,095,976 weights=412,776 act=201,824 ram_io=49,154
---------------------------------------------------------------------------------
id   name           c_macc                    c_rom                     c_id    
---------------------------------------------------------------------------------
0    conversion_0   |                  0.5%   |                  0.0%   [0]     
2    conv2d_2       ||||||||||||       9.3%   |                  0.1%   [1]     
3    conv2d_3       ||||               3.1%   |                  0.1%   [2]     
4    conv2d_4       ||||               2.7%   |                  0.0%   [3]     
5    conv2d_5       |||||||||||        8.2%   |                  0.1%   [4]     
7    conv2d_7       |||                2.3%   |                  0.2%   [5]     
8    conv2d_8       |||                2.1%   |                  0.1%   [6]     
9    conv2d_9       |||                2.1%   |                  0.1%   [7]     
10   conv2d_10      |||                2.3%   |                  0.2%   [8]     
11   conv2d_11      |||                2.1%   |                  0.1%   [9]     
12   eltwise_12     |                  0.0%   |                  0.0%   [10]    
13   conv2d_13      |||                2.1%   |                  0.1%   [11]    
15   conv2d_15      |                  0.6%   |                  0.2%   [12]    
16   conv2d_16      ||                 1.0%   |                  0.2%   [13]    
17   conv2d_17      |||                2.1%   |                  0.5%   [14]    
18   conv2d_18      ||                 1.2%   |                  0.3%   [15]    
19   conv2d_19      |||                2.1%   |                  0.4%   [16]    
20   eltwise_20     |                  0.0%   |                  0.0%   [17]    
21   conv2d_21      |||                2.1%   |                  0.5%   [18]    
22   conv2d_22      ||                 1.2%   |                  0.3%   [19]    
23   conv2d_23      |||                2.1%   |                  0.4%   [20]    
24   eltwise_24     |                  0.0%   |                  0.0%   [21]    
25   conv2d_25      |||                2.1%   |                  0.5%   [22]    
27   conv2d_27      |                  0.3%   |                  0.3%   [23]    
28   conv2d_28      |                  0.8%   |                  0.6%   [24]    
29   conv2d_29      ||                 1.2%   |                  1.0%   [25]    
30   conv2d_30      |                  0.4%   |                  0.5%   [26]    
31   conv2d_31      ||                 1.2%   |                  0.9%   [27]    
32   eltwise_32     |                  0.0%   |                  0.0%   [28]    
33   conv2d_33      ||                 1.2%   |                  1.0%   [29]    
34   conv2d_34      |                  0.4%   |                  0.5%   [30]    
35   conv2d_35      ||                 1.2%   |                  0.9%   [31]    
36   eltwise_36     |                  0.0%   |                  0.0%   [32]    
37   conv2d_37      ||                 1.2%   |                  1.0%   [33]    
38   conv2d_38      |                  0.4%   |                  0.5%   [34]    
39   conv2d_39      ||                 1.2%   |                  0.9%   [35]    
40   eltwise_40     |                  0.0%   |                  0.0%   [36]    
41   conv2d_41      ||                 1.2%   |                  1.0%   [37]    
42   conv2d_42      |                  0.4%   |                  0.5%   [38]    
43   conv2d_43      ||                 1.5%   |                  1.1%   [39]    
44   conv2d_44      |||                2.1%   |                  1.7%   [40]    
45   conv2d_45      |                  0.6%   |                  0.6%   [41]    
46   conv2d_46      |||                2.1%   |                  1.5%   [42]    
47   eltwise_47     |                  0.0%   |                  0.0%   [43]    
48   conv2d_48      |||                2.1%   |                  1.7%   [44]    
49   conv2d_49      |                  0.6%   |                  0.6%   [45]    
50   conv2d_50      |||                2.1%   |                  1.5%   [46]    
51   eltwise_51     |                  0.0%   |                  0.0%   [47]    
52   conv2d_52      |||                2.1%   |                  1.7%   [48]    
54   conv2d_54      |                  0.1%   |                  0.6%   [49]    
55   conv2d_55      ||                 0.9%   ||                 2.7%   [50]    
56   conv2d_56      ||                 1.6%   |||                4.9%   [51]    
57   conv2d_57      |                  0.3%   |                  1.1%   [52]    
58   conv2d_58      ||                 1.6%   ||                 4.6%   [53]    
59   eltwise_59     |                  0.0%   |                  0.0%   [54]    
60   conv2d_60      ||                 1.6%   |||                4.9%   [55]    
61   conv2d_61      |                  0.3%   |                  1.1%   [56]    
62   conv2d_62      ||                 1.6%   ||                 4.6%   [57]    
63   eltwise_63     |                  0.0%   |                  0.0%   [58]    
64   conv2d_64      ||                 1.6%   |||                4.9%   [59]    
65   conv2d_65      |                  0.3%   |                  1.1%   [60]    
66   conv2d_66      ||||               3.2%   ||||               9.2%   [61]    
67   conv2d_67      ||||||||||||||||  12.1%   ||||||||||||||||  36.0%   [62]    
69   dense_69       |                  0.0%   |                  0.6%   [63, 64]
70   nl_70          |                  0.0%   |                  0.0%   [65, 66]

Generated files (5)
---------------------------------------------------------------------
/Users/edoardo/.stm32cubemx/network_output/network_config.h
/Users/edoardo/.stm32cubemx/network_output/network.h
/Users/edoardo/.stm32cubemx/network_output/network.c
/Users/edoardo/.stm32cubemx/network_output/network_data.h
/Users/edoardo/.stm32cubemx/network_output/network_data.c
